Drone-AI/Assets/Drone/DroneAI-Behavior.onnx (onnx, 73189 bytes, 7 tensors)

network_body._body_endoder.seq_layers.0.weight f4 [128, 6]
0	0xbf49ab5d	-0.78777105
1	0x3ebe0cc9	0.3711913
2	0x3eb76f4f	0.3582711
3	0xbe8b3f81	-0.27196887
4	0x3ebcad1b	0.3685082
5	0xbe309d51	-0.17247511
6	0xbec9e562	-0.39432818
7	0xbe8aede1	-0.27134612
8	0x3f190a26	0.5978111
9	0xbe4db816	-0.20089754
10	0xbf074888	-0.5284505
11	0xbb89e0d3	-0.0042077093
12	0xbe1df7cf	-0.15426563
13	0xbe2564c6	-0.16151723
14	0x3ddff6f5	0.10935775
15	0x3f118f6a	0.5685946
16	0xbd8da3e6	-0.06916027
17	0xbe86ed5f	-0.26352975
18	0x3c157555	0.009122212
19	0x3dc29226	0.09500532
20	0x3efb4df0	0.490829
21	0xbd590ba6	-0.052989624
22	0xbf005809	-0.5013433
23	0xbf5b970a	-0.8577734
24	0x3e273dd1	0.16332175
25	0x3f28fa21	0.66006666
26	0xbedaa1c9	-0.42701557
27	0x3f355101	0.7082673
28	0x3dbd59f0	0.0924567
29	0x3d8130e8	0.06308156
30	0x3e2f752a	0.17134538
31	0x3e77f75d	0.24215455
32	0x3ea11667	0.31462404
33	0xbee7ef32	-0.4529968
34	0x3eb8fd59	0.3613079
35	0x3ea92d38	0.33042312
36	0x3ef72591	0.48270848
37	0x3f2232c2	0.633587
38	0xbd1343cf	-0.03595334
39	0xbf35e054	-0.7104542
40	0x3e782d4b	0.24236028
41	0xbe7d539f	-0.2473893
42	0x3e893d90	0.2680478
43	0x3ef07327	0.46962854
44	0x3d76f7c1	0.06029487
45	0x3c506d08	0.012721308
46	0x3d583836	0.052787982
47	0x3d907c34	0.0705494
48	0x3ed4fc2c	0.41598642
49	0xbe1c3d4d	-0.1525776
50	0x3e7424d7	0.23842178
51	0x3e466b2e	0.19376823
52	0xbec281ac	-0.37989557
53	0x3cfffe98	0.03124933
54	0xbee46e60	-0.4461546
55	0x3d83aac9	0.06429059
56	0x3d9b4c6d	0.075829364
57	0x3e82914c	0.25501478
58	0x3f60d195	0.87819797
59	0x3f46bd9b	0.77633065
60	0x3e8b34d0	0.2718873
61	0xbf545432	-0.8294097
62	0x3f36985a	0.7132622
63	0xbe9c6816	-0.3054816
64	0xbe95b4fa	-0.29239637
65	0x3e6bd791	0.23031451
66	0xbedfc9ac	-0.4370855
67	0x3e832067	0.2561066
68	0x3e1011ea	0.14069334
69	0xbe5c409a	-0.21509019
70	0x3eea60ad	0.45776883
71	0x3ebb760b	0.36613497
72	0x3ea515a6	0.3224308
73	0x3ec7fcd9	0.39060095
74	0xbf04e0c1	-0.5190545
75	0xbd8292e9	-0.06375677
76	0xbf250d29	-0.64473206
77	0xbf297559	-0.66194683
78	0xbf0a252c	-0.5396297
79	0x3e9362db	0.28786358
80	0x3e442557	0.19154869
81	0x3d78e3e8	0.060764223
82	0x3ecfb9a2	0.40571314
83	0xbf1b476c	-0.60655856
84	0x3ea7535b	0.32680783
85	0xbea6247b	-0.32449707
86	0xbf356165	-0.7085174
87	0x3edfb63f	0.4369373
88	0x3f1724d5	0.59040576
89	0x3f3adebe	0.7299613
90	0x3e853a5a	0.2602108
91	0xbdfc6a98	-0.12325019
92	0xbdb79004	-0.08963016
93	0xbecaef2e	-0.39635605
94	0x3dd592e9	0.104284115
95	0xbe59484e	-0.21218988
96	0xbec8664b	-0.39140543
97	0x3eeec171	0.4663196
98	0xbd7b28cf	-0.061318215
99	0xbe4035c3	-0.18770508
100	0x3e86edc0	0.26353264
101	0x3f23eb64	0.6403105
102	0x3ea7ba1f	0.32759187
103	0xbea7b409	-0.32754543
104	0xbd134c0c	-0.035961196
105	0xbdb44827	-0.088028245
106	0xbd98f0a8	-0.074677765
107	0xbe816bcd	-0.25277558
108	0x3e024fc3	0.12725739
109	0x3ef16580	0.4714775
110	0xbe25974e	-0.16171
111	0xbf30e83c	-0.6910436
112	0xbe9770e4	-0.29578316
113	0xbed1ba72	-0.4096256
114	0xbe75c834	-0.24002153
115	0x3eb49b64	0.35274804
116	0x3d15589b	0.036461454
117	0x3ebee828	0.37286496
118	0x3e07c28c	0.13257807
119	0xbf3aefbf	-0.73022074
120	0x3f3483c4	0.7051356
121	0xbf188c93	-0.595895
122	0xbd8d6e4f	-0.06905805
123	0x3f1c5feb	0.6108386
124	0xbdfd6fc2	-0.12374832
125	0xbec35a3f	-0.3815479
126	0xbe960ef7	-0.29308292
127	0xbe129da3	-0.14317946
128	0xbe01f54f	-0.12691234
129	0x3e5987cd	0.2124321
130	0xbda8cdee	-0.08242403
131	0x3e9325ef	0.2873988
132	0xbed9627f	-0.4245796
133	0x3e1f400d	0.15551777
134	0xbec0fa3a	-0.37690908
135	0xbe4e9e0d	-0.20177479
136	0xbf3b5fe4	-0.7319319
137	0xbe7b2617	-0.24526249
138	0x3f1fb7c7	0.62389797
139	0x3f1e2f3c	0.61790824
140	0xbea2b59d	-0.31779185
141	0x3ca9028f	0.020631103
142	0xbef12949	-0.4710181
143	0x3e89c8c3	0.26910982
144	0xbebba767	-0.36651155
145	0x3ea65961	0.32490066
146	0x3eccee9b	0.40025792
147	0x3e552d4d	0.20818062
148	0x3ea5f82c	0.32415903
149	0x3e2d335b	0.16914122
150	0x3f0e689b	0.55628365
151	0xbd490dec	-0.049085543
152	0x3d1fd829	0.039024506
153	0x3f4f9d66	0.81099546
154	0x3e825842	0.2545796
155	0xbd390405	-0.04516985
156	0xbeb0c339	-0.34523943
157	0x3f914f62	1.1352351
158	0xbe2cb53d	-0.16866012
159	0x3eecc712	0.4624563
160	0x3e50ff15	0.20409806
161	0xbf08baa1	-0.53409773
162	0x3e76ceea	0.24102369
163	0x3efa6690	0.48906374
164	0xbeb80f45	-0.3594915
165	0xbe19c035	-0.15014727
166	0x3f19abe1	0.6002789
167	0xbf034153	-0.5127155
168	0x3f126705	0.57188445
169	0x3f80c33f	1.0059584
170	0x3edcbf4e	0.43114704
171	0x3f3cebae	0.7379712
172	0xbf641f40	-0.89110184
173	0xbe99a92d	-0.30011883
174	0xbf10fec0	-0.5663872
175	0xbdae88d9	-0.08522195
176	0x3da86793	0.0822288
177	0xbc0984e6	-0.008393502
178	0xbb848a08	-0.004044775
179	0xbf066df2	-0.52511513
180	0x3f299a24	0.66250825
181	0x3ea6b52b	0.32560095
182	0xbe85d9d3	-0.2614275
183	0x3f249e05	0.6430362
184	0xbf07328b	-0.528115
185	0xbdf28354	-0.11841455
186	0xbdf20c02	-0.118186966
187	0xbb7c431b	-0.0038492146
188	0x3e2fea0e	0.17179129
189	0x3f1bcb01	0.60856634
190	0x3e1de4c2	0.15419295
191	0xbe78aa7d	-0.24283786
192	0xbea0510c	-0.31311834
193	0x3e7914bc	0.24324316
194	0xbf4492ff	-0.767868
195	0xbea6b70b	-0.32561526
196	0x3dbb1df9	0.09136576
197	0xbecd5106	-0.40100878
198	0xbdabba70	-0.083851695
199	0xbe02501c	-0.12725872
200	0xbcc7df9e	-0.024398621
201	0xbec708dc	-0.38873947
202	0x3eb3fffc	0.35156238
203	0x3e1ef835	0.15524371
204	0x3d40a953	0.04703648
205	0x3e7882b5	0.24268611
206	0x3ed69163	0.41907796
207	0x3f1c1f5e	0.6098536
208	0xbe93e8aa	-0.28888446
209	0x3c3d9289	0.011570581
210	0xbe3b8876	-0.18313774
211	0xbebc5000	-0.36779785
212	0xbf1f3a1d	-0.6219805
213	0xbf089594	-0.5335324
214	0x3f3bd869	0.7337709
215	0x3ec78792	0.3897062
216	0xbe50456f	-0.20338987
217	0xbf61db39	-0.8822513
218	0xbd8fce61	-0.070217855
219	0x3f129825	0.57263404
220	0xbf0b53c2	-0.5442468
221	0x3e4b5aec	0.19858903
222	0xbdd0780e	-0.101791486
223	0x3f2a4f2b	0.6652705
224	0x3f25b689	0.6473165
225	0xbc99e9ce	-0.018788245
226	0xbead3bae	-0.33834594
227	0x3ecfbd4a	0.40574104
228	0xbc9bdc11	-0.019025834
229	0x3daca264	0.08429411
230	0x3dbfb180	0.09360027
231	0x3d4b6b34	0.049662784
232	0x3d822829	0.06355316
233	0xbecf09b7	-0.404371
234	0x3e3e212f	0.18567346
235	0x3ed81e87	0.4221079
236	0x3f08c516	0.5342573
237	0x3e249892	0.16073826
238	0xbeb32bb3	-0.34994277
239	0xbf0e1f5f	-0.5551662
240	0xbefb1e38	-0.49046493
241	0xbf563937	-0.8368105
242	0xbf7e7dcc	-0.994107
243	0xbe2ef203	-0.17084508
244	0x3f00dd95	0.5033811
245	0x3ee10036	0.43945473
246	0xbe90d1c4	-0.28285038
247	0x3c6819fa	0.01416635
248	0x3ef24948	0.47321534
249	0xbeaa1472	-0.33218724
250	0x3f39db8b	0.7260062
251	0x3f3adc0e	0.72992027
252	0xbf054a6d	-0.5206669
253	0xbea7fec2	-0.32811552
254	0x3c15991e	0.009130744
255	0xbf97e7a7	-1.186757

network_body._body_endoder.seq_layers.0.bias f4 [128]
0	0x3bb75ec4	0.0055960137
1	0x3e2b12e6	0.16706428
2	0xbc7ade55	-0.015311797
3	0x3dbd0716	0.09229867
4	0xbeddd11e	-0.43323606
5	0x3e60a0e4	0.21936375
6	0xbdbe5860	-0.092942
7	0x3e176c4e	0.14787409
8	0x3d867f2d	0.065672256
9	0x3e13c93a	0.1443223
10	0xbe15a069	-0.14611973
11	0xbdfd99a1	-0.12382818
12	0xbee16a9c	-0.4402665
13	0x3ce92df3	0.028464293
14	0x3e0347dd	0.12820382
15	0xbe6376b6	-0.22213253
16	0x3e02af0f	0.12762092
17	0x3eaab94c	0.33344495
18	0xbedb351e	-0.42813963
19	0xbe883b43	-0.26607713
20	0xbd68ef4d	-0.05686884
21	0xbe2b777c	-0.16744798
22	0x3ebd3110	0.36951494
23	0xbeebf5eb	-0.46086058
24	0x3ea24caa	0.31699115
25	0x3dbc43cd	0.091926195
26	0xbb0d204a	-0.0021534138
27	0xba44a2ca	-0.0007501064
28	0x3ece4c19	0.40292433
29	0x3e580b33	0.21098022
30	0x3eafd4a9	0.34341934
31	0x3d20d2bf	0.039263483
32	0xbde0284e	-0.109451875
33	0x3e172ddc	0.14763588
34	0x3e60c7f1	0.21951272
35	0xbc26270d	-0.010141146
36	0x3d8b595f	0.068041556
37	0xbe4c2dfa	-0.19939414
38	0xbea231bf	-0.31678578
39	0x3eca14f5	0.39469114
40	0xbda204af	-0.079110496
41	0x3ed4d766	0.41570586
42	0xbc94095a	-0.018070865
43	0x3d41e893	0.04734094
44	0x3eee58a2	0.46551996
45	0xbd76ce27	-0.060255196
46	0xbde543e1	-0.111945875
47	0xbd08a735	-0.033362586
48	0xbd0ed38c	-0.034869716
49	0x3ebf7d84	0.37400448
50	0x3e080747	0.13284026
51	0x3e78f404	0.24311835
52	0xbd131bf6	-0.035915338
53	0x3e58843c	0.21144193
54	0xbe58d572	-0.21175173
55	0x3ea2d2d5	0.31801477
56	0xbe839ec7	-0.25707075
57	0x3e891577	0.2677419
58	0xbe149138	-0.14508522
59	0x3de1914f	0.110140435
60	0x3c7801d7	0.015137157
61	0xbeb512b5	-0.35365835
62	0x3d8cadb2	0.06869067
63	0x3e4173f2	0.18891886
64	0x3de75fa9	0.112975426
65	0x3e6910a2	0.22760251
66	0x3eaf7052	0.3426538
67	0xbc80c320	-0.015718043
68	0x3ead24b7	0.33817074
69	0x3e669adb	0.2252001
70	0x3e7a1c66	0.24424896
71	0xbda5f8d7	-0.08104103
72	0x3e38f078	0.18060482
73	0x3eaac5c8	0.3335402
74	0x3bab1af0	0.005221717
75	0x3ee0c9e4	0.4390403
76	0xbe631d20	-0.22179079
77	0x3e535e5b	0.20641463
78	0x3ea2f609	0.31828335
79	0xbe230334	-0.1591919
80	0x3dc0dcb4	0.09417096
81	0x3ea0c3aa	0.3139928
82	0xbe702305	-0.23450859
83	0x3d779dba	0.060453154
84	0xbdb1dde5	-0.08684901
85	0xbe8b7350	-0.27236414
86	0x3d6a7b8e	0.057246737
87	0xbd150874	-0.036385015
88	0x3e885621	0.2662821
89	0x3ea8bc33	0.32956085
90	0xbd195c1e	-0.037441365
91	0x3eb08921	0.3447962
92	0xbe6f9db4	-0.23400003
93	0xbaa21202	-0.0012364986
94	0xbd3adb3b	-0.04561923
95	0x3e061900	0.13095474
96	0xbe9bb6e1	-0.30412963
97	0xbeaf3e11	-0.3422704
98	0xbe8e009c	-0.2773484
99	0x3ec99091	0.39368108
100	0x3e313325	0.17304666
101	0xbe70b8de	-0.23508021
102	0x3cee38f7	0.029079897
103	0x3e9cac4c	0.30600202
104	0xbe1ca1c2	-0.1529608
105	0x3d3d69c1	0.046243433
106	0x3cad254e	0.021135952
107	0xbb63fd68	-0.0034788493
108	0xbe8eb2a8	-0.2787068
109	0xbee8ffc9	-0.4550765
110	0xbe643a6b	-0.2228791
111	0xbef52eac	-0.4788717
112	0xbe3068b0	-0.17227435
113	0xbf08dfa5	-0.53466254
114	0xbeda09e7	-0.4258568
115	0xbdb21527	-0.08695441
116	0x3ea68432	0.32522732
117	0xbebd703a	-0.36999685
118	0xbb0c4c34	-0.0021407725
119	0xbeeaaf6b	-0.45836958
120	0xbeb2de0c	-0.34935033
121	0xbbb844a7	-0.0056234184
122	0x3e05ffcf	0.13085864
123	0xbd18578e	-0.037192874
124	0xbdbdb44f	-0.09262907
125	0xbe9f3466	-0.31094664
126	0xbe57674c	-0.21035498
127	0xbe364d02	-0.17802814

network_body._body_endoder.seq_layers.2.weight f4 [128, 128]
0	0x3d2f09fd	0.042734135
1	0x3d69adb1	0.05705041
2	0x3dc531e5	0.09628657
3	0xbd86f862	-0.06590344
4	0xbd2fb04c	-0.04289274
5	0x3bd1e8fa	0.006405947
6	0x3c96f311	0.01842645
7	0x3d070c39	0.03297064
8	0x3c1b6ddb	0.009486641
9	0xbd4e1b2b	-0.05031888
10	0x3d4174ef	0.047230657
11	0xbdec8c0d	-0.1155015
12	0xbab401d5	-0.0013733456
13	0xbd99e2fb	-0.07513996
14	0x3c1137be	0.008863388
15	0x3bd56874	0.006512696
16	0x3e1eb962	0.15500405
17	0x3c9c6886	0.01909281
18	0x3ddcb3a3	0.107764505
19	0x3cc91036	0.024543863
20	0x3d1d58bf	0.038414713
21	0xbc96090b	-0.018314859
22	0x3e61731b	0.22016566
23	0x3d3d8082	0.046265133
24	0x3d66b36a	0.056323446
25	0x3e2e0157	0.16992699
26	0xbd19bc1a	-0.037532903
27	0xbd92d6a2	-0.07169844
28	0x3e225e97	0.15856396
29	0x3ce06d0b	0.027395746
30	0xbd1a6c3f	-0.037700888
31	0x3d00c75d	0.031440128
32	0xbe29d9ed	-0.16587038
33	0x3ccd28de	0.025043901
34	0xbcaf7958	-0.021420166
35	0xbe3473d8	-0.17622316
36	0x3cc23659	0.023707556
37	0x3d4a4e0e	0.049390845
38	0xbdc95bab	-0.098319374
39	0x3cd55a93	0.026044166
40	0xbe00481c	-0.12527508
41	0xbe184fca	-0.14874187
42	0xbd629357	-0.055316295
43	0x3decb764	0.115584165
44	0xbda580fe	-0.08081244
45	0xbbee8c90	-0.00727994
46	0x3e1016b4	0.1407116
47	0xbe0e1755	-0.13876088
48	0xbd356a99	-0.044291113
49	0x3d4d7681	0.050161842
50	0xbd928c33	-0.07155647
51	0x3cc8ccc7	0.024511708
52	0xbe892759	-0.26787832
53	0xbc50966c	-0.012731176
54	0x3d32a663	0.04361571
55	0x3cf68f65	0.030097673
56	0x3e102bcd	0.14079209
57	0x3a76d1e3	0.0009415431
58	0x3d9b7e2c	0.07592425
59	0x3d1bbd50	0.03802234
60	0x3dfa3722	0.12217547
61	0xbda8ae45	-0.08236364
62	0xbd90bfa6	-0.07067804
63	0xbdcad36f	-0.09903609
64	0x3d66124c	0.056169793
65	0xbd335628	-0.043783337
66	0xbd4be797	-0.04978141
67	0xbdff105f	-0.124542944
68	0xbd88f65d	-0.06687615
69	0xbe12b5b8	-0.14327133
70	0xbbccf01f	-0.0062542106
71	0xbb85f0fd	-0.004087566
72	0xbc284008	-0.0102691725
73	0xbda36f27	-0.07980185
74	0x3d23adea	0.03996078
75	0x3def0088	0.11670023
76	0x3d806538	0.06269306
77	0xbdc5aa46	-0.09651618
78	0xbdefa64d	-0.11701641
79	0xbe081b31	-0.13291623
80	0xbda9dda5	-0.082942285
81	0x3d307fc0	0.043090582
82	0xbd9babdc	-0.07601139
83	0xbc181b43	-0.009283843
84	0x3d314b56	0.043284737
85	0xbd97bc73	-0.07408991
86	0xbdab7e3b	-0.08373686
87	0x3b67025f	0.0035249216
88	0xbda6459b	-0.08118745
89	0xbcec020b	-0.028809568
90	0x3d76634e	0.060153298
91	0x3db35649	0.08756692
92	0xbdb5bb4c	-0.08873615
93	0xbda21dec	-0.079158634
94	0x3dd2c3eb	0.10291275
95	0xbdbf2b8e	-0.09334479
96	0x3d18c504	0.037297264
97	0xbe064e1b	-0.13115732
98	0x3dea5c7f	0.114434235
99	0xbd1d1b82	-0.03835631
100	0x3e1141e4	0.14185292
101	0x3ddd691d	0.108110644
102	0x3d81db94	0.06340709
103	0xbe147afe	-0.14500043
104	0x3c42d116	0.01189067
105	0xbda41a98	-0.08012885
106	0x3d699f43	0.05703665
107	0xbd950101	-0.07275582
108	0x3dc81fe1	0.097717054
109	0xbdcb2c65	-0.09920577
110	0xbd964e9a	-0.07339211
111	0xbda5cd21	-0.08095766
112	0x3a1cacf4	0.00059767
113	0xbe3d045d	-0.18458696
114	0xbca8cca7	-0.020605398
115	0xbc09eee4	-0.008418772
116	0x3d1a5913	0.037682604
117	0xbd66def8	-0.056364983
118	0xbd19be6b	-0.037535112
119	0x3df89b50	0.121389985
120	0x3d10fb39	0.035395835
121	0x3ddeab09	0.10872466
122	0x3d6110c9	0.05494765
123	0xbda76466	-0.08173446
124	0x3db89257	0.09012287
125	0xbd60233d	-0.054721106
126	0xbcb34cab	-0.021887144
127	0xbd356a2d	-0.04429071
128	0x3dbe4fee	0.09292589
129	0x3bcd7161	0.0062696193
130	0xbd207afe	-0.039179794
131	0xbe10c1a5	-0.1413637
132	0xbd3ac9d3	-0.04560263
133	0x3d11f2b2	0.035631843
134	0xbd977d33	-0.07396927
135	0x3d1a27b4	0.03763552
136	0x3dd22805	0.10261539
137	0x3e07ca92	0.13260868
138	0x3d982887	0.07429605
139	0x3ded27b0	0.115798354
140	0x3cde0949	0.027104037
141	0xbd72765c	-0.059194908
142	0xbe6c8569	-0.23097767
143	0x3cfe83e8	0.031068757
144	0xbd733b23	-0.05938257
145	0xbddfe02f	-0.109314315
146	0x3d803cd2	0.062616006
147	0x3dfc0eec	0.123075336
148	0xbe464256	-0.19361243
149	0x3dd3cd20	0.10341859
150	0x3dd0a762	0.10188176
151	0x3db045b5	0.086070456
152	0xbdf47c83	-0.11937811
153	0xbe2e5f4b	-0.17028539
154	0xbd88db4d	-0.06682453
155	0x3dff18bf	0.12455892
156	0x3dd2e3a9	0.10297329
157	0xbbe46bb6	-0.006970848
158	0x3d90e975	0.070757784
159	0x3d3f8480	0.04675722
160	0xbda2db7f	-0.07952022
161	0x3da47e90	0.080319524
162	0x3e1d63f5	0.15370162
163	0x3c1616bd	0.009160695
164	0x3dbc2b41	0.091879375
165	0xbd4eaa8f	-0.050455626
166	0xbd1e607f	-0.038666245
167	0xbd6abdf3	-0.057310056
168	0xbd7fac14	-0.062419966
169	0x3dbf1e43	0.09331944
170	0xbe10f8f7	-0.14157473
171	0x3bfcfb29	0.0077203703
172	0xbc0296e5	-0.007970546
173	0xbedec339	-0.43508318
174	0xbd940c4d	-0.07228909
175	0xbe74fa89	-0.23923697
176	0x3dd570a8	0.10421878
177	0xbe45539c	-0.19270176
178	0xbce3e34b	-0.027818343
179	0xbdeca21d	-0.11554358
180	0x3d04207f	0.032257553
181	0x3d0f265c	0.03494869
182	0x3dd01af9	0.101613946
183	0xbdf5265c	-0.11970207
184	0xbd523e71	-0.05132908
185	0x3e1d47a5	0.15359361
186	0x3b536d0b	0.003226104
187	0x3dabeb63	0.08394506
188	0x3c25fb8a	0.010130772
189	0x3d8d7498	0.06907004
190	0x3db7aa16	0.08967988
191	0xbd07450b	-0.03302483
192	0xbd5b5126	-0.053544186
193	0x3dcfd767	0.101485066
194	0xbe250ee6	-0.16118965
195	0xbd804ff0	-0.06265247
196	0x3d8ef032	0.06979407
197	0x3e27db2a	0.16392198
198	0xbdaa6ece	-0.083219156
199	0xbdb4bc51	-0.08824981
200	0xbdc09b98	-0.09404677
201	0xbe363e61	-0.17797233
202	0xbe1ca349	-0.15296663
203	0xbd661997	-0.056176748
204	0xbdc35786	-0.09538178
205	0xbd8b9400	-0.06815338
206	0xbd481413	-0.04884727
207	0x3e2ab5d5	0.16670926
208	0xbcab3815	-0.020900765
209	0xbd26f1d0	-0.040757954
210	0xbc82dcd8	-0.015974447
211	0xbdb4b6e8	-0.08823949
212	0xbd60344e	-0.05473738
213	0x3c6a2f7c	0.014293548
214	0x3d8922ab	0.066960655
215	0x3d2a3de3	0.041562926
216	0xbe0cbc55	-0.13743718
217	0xbe2084d6	-0.15675673
218	0x3d8fe751	0.07026542
219	0xbe2b29ce	-0.16715166
220	0x3a21ff46	0.00061797013
221	0xbd991cae	-0.07476173
222	0xbbc91cdf	-0.006137475
223	0xbcfee267	-0.031113816
224	0xbb04dd49	-0.0020273498
225	0x3da23f3f	0.079222195
226	0xbd022e28	-0.0317823
227	0xbdba7c52	-0.091057435
228	0x3db4b069	0.0882271
229	0xbdd9692a	-0.106157616
230	0xbcf1d2e4	-0.029519506
231	0x3c25ca53	0.010119039
232	0xbd306ead	-0.0430743
233	0xbe060939	-0.13089456
234	0x3dd399f7	0.10332101
235	0xbd21010f	-0.03930765
236	0x3e033778	0.12814128
237	0xbd9f3929	-0.07774574
238	0xbe2f2a7f	-0.17106055
239	0xbd832a00	-0.06404495
240	0xbd544dfb	-0.05183218
241	0xbdd8a4d8	-0.105783165
242	0xbd5ec29c	-0.054384813
243	0x3db8050b	0.08985337
244	0x3c855290	0.01627472
245	0xbdca2bc8	-0.09871632
246	0xbc1cbf9f	-0.00956717
247	0xbe80ec97	-0.25180504
248	0xbbe946a2	-0.007119016
249	0xbd4015aa	-0.04689566
250	0xbb391963	-0.0028243891
251	0xbe1a4319	-0.15064658
252	0xbdcf99aa	-0.10136731
253	0xbe01f0c5	-0.12689503
254	0xbdd4d740	-0.10392618
255	0xbe144a72	-0.14481524

network_body._body_endoder.seq_layers.2.bias f4 [128]
0	0xbcfa14bd	-0.030527467
1	0xbb866865	-0.0041018003
2	0x3dee7bb3	0.116446875
3	0xbecf2182	-0.40455252
4	0x3b23fedd	0.0025023737
5	0x3eb0422a	0.3442548
6	0x3e8262da	0.25466043
7	0x3be91356	0.0071129007
8	0xbdd62235	-0.10455743
9	0xbe144b06	-0.14481744
10	0xbe5efc93	-0.21776037
11	0xbc0d90c3	-0.008640471
12	0xbe86f3c4	-0.26357853
13	0xbe7a9940	-0.24472523
14	0x3d3ec26f	0.046572145
15	0x3e6cb7b4	0.23116952
16	0xbe16c46c	-0.14723366
17	0x3e773134	0.24139863
18	0xbe10fd3c	-0.14159101
19	0x3ea3bf14	0.3198172
20	0x3e89a953	0.26886997
21	0xbd8dc122	-0.06921603
22	0x3e88dc43	0.26730546
23	0xbedf415b	-0.4360455
24	0x3e49811e	0.1967816
25	0xbe88d193	-0.26722392
26	0xbeaa6e32	-0.33287197
27	0xbe84ae79	-0.25914362
28	0x3e148616	0.14504275
29	0x3e826bf5	0.2547299
30	0x3be2cd45	0.0069214427
31	0xbe277070	-0.16351485
32	0x3e2605ff	0.16213225
33	0xbd601e13	-0.05471618
34	0x3eba6107	0.3640215
35	0x3cdf8195	0.02728347
36	0x3e4e1e1e	0.20128676
37	0xbe085d63	-0.13316874
38	0xbec2bf5a	-0.38036615
39	0xbdfff16b	-0.12497219
40	0x3cb108bf	0.021610616
41	0x3ebba7e2	0.36651522
42	0x3cc7ce45	0.02439035
43	0x3ec393a8	0.3819859
44	0x3d6d2f8d	0.057906676
45	0x3e947eac	0.29002893
46	0xbe5244ec	-0.20534104
47	0xbe03e498	-0.1288017
48	0x3ef6622d	0.48121777
49	0x3ebaf4f9	0.36515024
50	0x3ebfbb02	0.37447363
51	0x3c49b3c0	0.012310922
52	0xbdea31e6	-0.114352986
53	0x3e3dd0bf	0.18536662
54	0xbbd25074	-0.006418282
55	0x3eb41ebf	0.35179707
56	0xbdbb02d2	-0.09131397
57	0x3e4cc6a7	0.19997655
58	0x3e91d8e5	0.2848579
59	0x3d5a927f	0.053362366
60	0xbd472d22	-0.048627026
61	0x3d3a4a68	0.045481116
62	0xbe88724b	-0.266497
63	0x3e42f4af	0.19038652
64	0xbd00aadb	-0.03141294
65	0x3e215420	0.15754747
66	0x3e2e3172	0.1701105
67	0xbccef70e	-0.02526429
68	0xbcf7fa99	-0.030270861
69	0xbcd7d56e	-0.026346888
70	0xbd70460c	-0.058660552
71	0x3b27e372	0.0025617746
72	0x3d3205e2	0.04346264
73	0x3e2fdc41	0.17173864
74	0x3e8d557c	0.27604282
75	0x3c6b2951	0.014353112
76	0x3de12ff3	0.10995474
77	0x3cbe1d7c	0.023207419
78	0x3e711ab4	0.23545343
79	0x3ded1e23	0.11578014
80	0xbda5463f	-0.08070039
81	0xbe187820	-0.14889574
82	0x3e95ef3d	0.29284087
83	0xbccfe5ea	-0.025378186
84	0xbd8a0afa	-0.06740375
85	0xbeb87ba1	-0.3603182
86	0x3ebcba86	0.36861056
87	0x3d91c231	0.07117117
88	0xbe3257ba	-0.17416278
89	0x3daa5269	0.083165
90	0xbefe47fb	-0.49664292
91	0x3ce88283	0.028382545
92	0x3e72ad00	0.23698807
93	0x3e3d0ab5	0.18461116
94	0x3eb286a4	0.34868348
95	0xba3a436c	-0.00071053836
96	0x3e1e7ce4	0.1547733
97	0xbce8ed02	-0.028433327
98	0x3e0de41d	0.1385655
99	0xbd3fa89c	-0.046791658
100	0x3e0c680f	0.1371157
101	0xbd434680	-0.047674656
102	0xbec0b57d	-0.37638465
103	0x3ee1b7cf	0.44085547
104	0x3da61bc8	0.081107676
105	0xbe802cf1	-0.25034288
106	0x3e26e61a	0.16298714
107	0xbea62900	-0.32453156
108	0x3d68fb13	0.056880068
109	0x3ecf2c96	0.40463704
110	0x3ed4ff06	0.41600817
111	0xbdcbc376	-0.099493906
112	0x3eb1a579	0.34696558
113	0x3c91e835	0.01781092
114	0xbdef620a	-0.11688621
115	0xbd69f60a	-0.057119407
116	0x3dca2c83	0.09871771
117	0x3e218179	0.15772046
118	0x3d9e57fd	0.07731626
119	0xbdacd9a9	-0.08439953
120	0xbc0cd89b	-0.008596565
121	0xbd17de53	-0.03707726
122	0xbe93efa0	-0.28893757
123	0x3ebded5d	0.37095156
124	0xbe846843	-0.25860795
125	0x3ebe681d	0.37188807
126	0x3ec348eb	0.3814157
127	0x3e806f60	0.25084972

action_model._continuous_distribution.log_sigma f4 [1, 3]
0	0x3ea63cdc	0.32468307
1	0x3ea45c10	0.32101488
2	0x3ea3ec02	0.32015997

action_model._continuous_distribution.mu.weight f4 [3, 128]
0	0xbc2a197b	-0.010382052
1	0xbe9a13ac	-0.30093133
2	0xbc8024f4	-0.01564262
3	0x3cd4b64d	0.025965834
4	0xbc31f2f5	-0.010861148
5	0xbccb5120	-0.024818957
6	0xbb2914d4	-0.0025799768
7	0x3a074d25	0.0005161337
8	0x3ce7b4c3	0.028284436
9	0xbc9ebd0b	-0.019377252
10	0x3ce50f27	0.027961327
11	0xbb0cf660	-0.0021509156
12	0x3c57d338	0.013172917
13	0x3c2f8bb4	0.01071446
14	0xbc6b96b4	-0.014379192
15	0x3ce1e839	0.027576553
16	0x3d8d25f1	0.068920024
17	0x3d006d1a	0.031354047
18	0xbcd2d160	-0.025734603
19	0x3d0a5562	0.033772834
20	0xbab901c2	-0.0014114904
21	0x3c9745c4	0.018465884
22	0x3a4436a0	0.00074849464
23	0x3d38fc4b	0.04516248
24	0xbc1c7318	-0.009548925
25	0x3bd9dbb5	0.0066485056
26	0xbbc8bc7c	-0.0061259847
27	0x3d41e1ea	0.04733459
28	0xb841ccf9	-4.620568e-05
29	0xbc368e53	-0.011142331
30	0x3cdd765e	0.027033981
31	0x3ba86230	0.005138658
32	0xbbc2b09e	-0.0059414646
33	0xbd3087e3	-0.04309834
34	0x3d448d6a	0.047986425
35	0xbbc529b3	-0.006016934
36	0x3c9de793	0.019275462
37	0xb8f02a52	-0.000114519746
38	0x3c93fd66	0.018065166
39	0xbb6fc476	-0.0036585606
40	0xbc7756f4	-0.015096415
41	0x3cb8e541	0.022570254
42	0x3d2fa674	0.04288335
43	0xbd59466c	-0.053045675
44	0x3d032422	0.03201688
45	0x3b61a93f	0.0034433154
46	0x3c6648ad	0.014055413
47	0x3cbdac28	0.02315338
48	0xbe21b03f	-0.15789889
49	0xbbf601b8	-0.007507529
50	0xbd92bbe6	-0.07164745
51	0xbc5fc39f	-0.01365748
52	0x3d7ad97f	0.061242577
53	0x3cefacf1	0.02925727
54	0x3cb32e27	0.021872593
55	0xbd6ef722	-0.058341153
56	0x3afb6df0	0.0019182544
57	0xbcc4aefd	-0.024009222
58	0xbd23832a	-0.03992001
59	0x3b3f36ee	0.0029177028
60	0xbeb3e8d7	-0.3513858
61	0xbb8ac505	-0.0042349123
62	0xbd750000	-0.059814453
63	0x3cbe06e2	0.023196641
64	0x3ed2ef47	0.4119818
65	0xbce449a2	-0.027867142
66	0xbc04a6a0	-0.008096367
67	0xbcce7964	-0.025204368
68	0xbcc53225	-0.024071762
69	0xbc076fca	-0.008266399
70	0xbe577110	-0.21039224
71	0xbcc3dceb	-0.023909053
72	0xbd098270	-0.03357166
73	0x3b539d4b	0.00322898
74	0x3d637252	0.055528946
75	0x3c333111	0.010936991
76	0xbcdff2df	-0.02733749
77	0x3d4b1411	0.049579684
78	0x3a29a3f6	0.00064712705
79	0xb8f5df5c	-0.00011724114
80	0x3d121f72	0.03567452
81	0x3c7f2d45	0.015574758
82	0x3cf9c4e7	0.030489398
83	0xbc29105a	-0.01031884
84	0xbe67e148	-0.22644532
85	0xbca72be3	-0.020406669
86	0xbd117cfc	-0.035519585
87	0x3d058f90	0.032607615
88	0x3c7a51d6	0.0152783
89	0x3b9ac56d	0.004723242
90	0x3d38fce9	0.04516307
91	0x3aeddc90	0.0018147398
92	0x3bd33a51	0.006446161
93	0x3d5b61e3	0.05356015
94	0x3d150ae7	0.03638735
95	0xbcc3e375	-0.02391217
96	0xbd10414a	-0.035218515
97	0x3e54e0af	0.20788835
98	0x3ba87ff1	0.005142205
99	0x3ebb9d84	0.36643612
100	0xbcb55cfc	-0.022139065
101	0xbe407a24	-0.18796593
102	0x3cfc4efb	0.03079938
103	0xbbd13d05	-0.006385448
104	0xbd1fcea0	-0.039015412
105	0x3b2a89b1	0.0026022012
106	0x3c8a843c	0.016908757
107	0x3cc31890	0.023815423
108	0x3c343286	0.010998374
109	0xbe0dfe35	-0.13866504
110	0x3d18739a	0.03721962
111	0x3c2db0ef	0.010601266
112	0x3884ba08	6.3289015e-05
113	0xb86e8002	-5.686284e-05
114	0xbdf2a3db	-0.11847659
115	0xbe2fb6f3	-0.17159633
116	0xbc145294	-0.009052891
117	0x3d038d9c	0.03211747
118	0xbc50c39d	-0.01274195
119	0x3db4df38	0.08831638
120	0xbb2510e6	-0.0025187074
121	0x3c15c98a	0.009142289
122	0xbb8f6e67	-0.0043771747
123	0xbccd8c1f	-0.025091229
124	0x3cf6ae98	0.03011255
125	0x37d6dc6a	2.5613426e-05
126	0x3e169a64	0.14707333
127	0x3ca26d9b	0.019827655
128	0x3c2c6561	0.0105222175
129	0x3eb0dbc1	0.3454266
130	0x3b92a300	0.0044749975
131	0x3d4f3ad2	0.050593205
132	0xbc388697	-0.0112625575
133	0xbdfe8ee8	-0.12429601
134	0xbcf85738	-0.030315027
135	0x39fc0ab7	0.0004807317
136	0x3dc8bb78	0.09801382
137	0x3d150160	0.036378264
138	0xbcde325c	-0.027123623
139	0x3ccfeccb	0.025381466
140	0x3c8c2627	0.017108036
141	0x3d222d6f	0.03959411
142	0xbd68bac3	-0.056818735
143	0xbd531ebc	-0.051542982
144	0x3d21b604	0.039480224
145	0xbb6daf4a	-0.003626781
146	0x3daf72d2	0.08566822
147	0x3d1a54d1	0.037678543
148	0xbb9dbae4	-0.004813539
149	0xbce3a978	-0.02779077
150	0xbafb7b8c	-0.00191866
151	0xbd8580e6	-0.06518726
152	0xbb7c5b2a	-0.0038506486
153	0xbd2f4375	-0.04278894
154	0x3ca804e2	0.02051014
155	0x3c30d7c9	0.010793635
156	0xbd147123	-0.036240708
157	0x3d6d3048	0.057907373
158	0xbcd3d7cc	-0.025859736
159	0xbbdce7ea	-0.0067415135
160	0xbc7596c0	-0.014989555
161	0x3d1b74bd	0.037953127
162	0x3d600b63	0.05469836
163	0x3cb6d1f6	0.022316914
164	0xbc91f0bd	-0.017814988
165	0x3d2b7532	0.041859813
166	0x3cf4288f	0.029804496
167	0x3d0a3203	0.0337391
168	0xbcaab027	-0.02083595
169	0xbbd4f46e	-0.006498865
170	0x3c8df7d6	0.017330091
171	0xbd19214c	-0.03738527
172	0xbc1b23b8	-0.009468965
173	0xbcfeec69	-0.031118589
174	0x3cbe9ad5	0.023267189
175	0xbbae86b4	-0.0053261165
176	0xbdc7f9aa	-0.097644165
177	0x3d695274	0.0569634
178	0xbc9ee265	-0.019395063
179	0xbca1c8d8	-0.01974909
180	0xbe51bbd5	-0.20481808
181	0x3db0ee87	0.086392455
182	0xbac05675	-0.0014674204
183	0x3d9a17e0	0.07524085
184	0x3c98d554	0.01865641
185	0x3b63289d	0.0034661659
186	0xbcbe9dcf	-0.023268608
187	0xbd3c53d3	-0.04597838
188	0x3d8e9bb0	0.06963289
189	0x3d17fbed	0.03710549
190	0x3cb6b0fe	0.022301193
191	0xbc571255	-0.013126929
192	0xbe5932fc	-0.21210855
193	0xbcecd7d9	-0.028911518
194	0x3d01fd05	0.03173544
195	0xbc9a05c2	-0.018801574
196	0x3bbc3505	0.005743625
197	0x3ca64728	0.020297602
198	0x3e07d030	0.13263011
199	0x39092700	0.00013079867
200	0x3d100006	0.035156272
201	0x3cc6c4a9	0.024263697
202	0x3d313db5	0.04327174
203	0xbc352932	-0.011057185
204	0xba00b5a0	-0.0004909877
205	0x3d40e383	0.047091972
206	0xbd1e5081	-0.038650993
207	0x3b50a4a3	0.0031836412
208	0xbcd30487	-0.025758995
209	0x3c787f06	0.0151670035
210	0xbc947975	-0.018124321
211	0x3cbf4138	0.023346528
212	0x3e1021ee	0.14075443
213	0x3c76ff73	0.015075552
214	0x3d08e6ca	0.033423223
215	0xbcf70149	-0.03015198
216	0x3bd44b23	0.0064786836
217	0xba82f929	-0.0009992468
218	0xbdb3ab84	-0.087729484
219	0xbcbd6a84	-0.02312208
220	0xbc9a391b	-0.018826058
221	0xbcf18ba5	-0.029485533
222	0x3aa3c219	0.0012493759
223	0x3bc631fd	0.0060484395
224	0xbbb949e0	-0.0056545585
225	0x3cc994cc	0.024607085
226	0xbbaa3d15	-0.00519527
227	0x3e6cb1e4	0.23114735
228	0x3c2388e4	0.009981368
229	0x3eba1118	0.36341166
230	0xbce9ffb7	-0.028564317
231	0xbd909e31	-0.070614226
232	0x3c161dd2	0.009162383
233	0x3cf28cb9	0.029608117
234	0x3ada79ce	0.0016668381
235	0xbcc6dde1	-0.024275722
236	0x3b5f8927	0.0034108849
237	0x3de85d47	0.11345916
238	0x3cfd01f3	0.030884719
239	0x3c4185c7	0.01181168
240	0x3d60299a	0.054727174
241	0xbca8e33a	-0.020616163
242	0x3e1b6757	0.1517614
243	0x3e4ee93b	0.20206158
244	0xbc50737d	-0.012722847
245	0x3c5fb107	0.013653046
246	0x3d1ea467	0.038731005
247	0x3e05f2fe	0.13080975
248	0xbb9a47b8	-0.0047082566
249	0x3b3cc146	0.0028801723
250	0xbd782987	-0.06058648
251	0x3c1115dd	0.00885531
252	0x3c0e2ffc	0.008678433
253	0x3d11d2b4	0.035601333
254	0x3d412cf6	0.04716202
255	0xbc6fa204	-0.01462603

action_model._continuous_distribution.mu.bias f4 [3]
0	0x3b75322c	0.0037413938
1	0xbca05b19	-0.019574689
2	0x3d46bad7	0.048518028
