Drone-AI/Assets/DroneAI-Behavior 1.onnx (onnx, 73189 bytes, 7 tensors)

network_body._body_endoder.seq_layers.0.weight f4 [128, 6]
000000 40 92 ad bd 74 27 94 3e ac 57 1c 3f c3 9e 89 3d
       -0.084751606 0.2893635 0.61071277 0.067197345
000010 5c c9 a9 3c 14 45 91 be 03 53 7f 3e fc e8 5d 3f
       0.020725898 -0.28373015 0.2493401 0.8668363
000020 e8 35 fe 3d 8c c9 9d 3e 69 84 93 bc 9b 87 0b bf
       0.124126256 0.3081783 -0.018007474 -0.5450379
000030 cb 48 6e 3e cc 67 1b bf de fa 32 3e 74 0f fe 3e
       0.23269956 -0.60705256 0.1747851 0.49621165
000040 f5 1f 1c 3e db fd 6c be d7 65 07 bd f6 59 14 be
       0.15246566 -0.23143713 -0.033056106 -0.14487442
000050 dd f0 04 3e e1 0c 81 3f a3 3a 24 3e c3 1f 88 3e
       0.12982507 1.0082055 0.16037993 0.26586732
000060 9c 94 85 3e f1 78 f4 be 2b da 23 3e 7d eb 88 3d
       0.26089942 -0.4774852 0.16001193 0.06685541
000070 d8 4e ad 3e 07 fc dc 3e 52 08 9a 3e 59 05 8d 3e
       0.33849216 0.43161032 0.30084473 0.27543142
000080 e8 22 6d be 77 00 c8 bc 4d ab f6 3e 53 5a 99 3c
       -0.23157847 -0.024414284 0.48177567 0.018719828
000090 bd 97 d0 3e 6c 5c 06 3f 08 5a cd 3e 43 19 73 bd
       0.40740767 0.52484775 0.4010775 -0.059350263
0000a0 e5 77 e0 3d c6 bb 1e 3e 4a d7 16 3e 62 1c 07 bd
       0.10960368 0.15501317 0.14730564 -0.032986052
0000b0 a0 5a af be b7 0c 0e 3f 03 10 61 bd bd a1 8b 3b
       -0.3424883 0.5548815 -0.05494691 0.004261224
0000c0 c6 63 9a bd 07 82 ff 3e 54 95 43 3e 73 66 89 be
       -0.075385615 0.4990389 0.19099933 -0.26835975
0000d0 5f 3d d8 3e 1a 7d 2c be a9 4f 73 3f f9 91 ca 3e
       0.42234322 -0.16844597 0.95043427 0.39564493
0000e0 04 40 02 3f 70 ce 04 3f 8e 0e 05 3f 77 c8 82 3d
       0.5087893 0.518775 0.51975334 0.06385892
0000f0 6f ab be 3e 10 a5 19 3d 82 ab 8a be 90 ab 48 bc
       0.37240168 0.03751093 -0.27083975 -0.012247935
000100 db 83 59 3f 52 6b 84 3f 32 4c 84 3e 1a 1b b5 3e
       0.8496682 1.0345252 0.25839382 0.3537224
000110 12 27 61 3f 4e 76 e3 3d 6b b8 21 bf 30 5d 33 be
       0.8795024 0.11106549 -0.63172024 -0.17516017
000120 b2 f4 42 3e dd 39 83 3d 70 cd 0d bf 36 07 36 3e
       0.19038656 0.06407521 -0.553916 0.17776188
000130 b4 20 6e 3f c1 07 89 3d 30 8a cb 3e 60 2c a9 be
       0.9301865 0.06690932 0.39753866 -0.33041668
000140 c1 31 25 bf 13 a3 57 3d ea 9a 7f be 84 b6 94 3e
       -0.64529043 0.052645754 -0.24961439 0.29045498
000150 c5 d4 84 3e da ca 5f bd 4f d6 90 be 8d a2 a2 3e
       0.2594358 -0.054636814 -0.28288504 0.3176464
000160 a7 3a 80 bf 55 9f 6d bf d5 e8 d1 bc b7 30 24 3f
       -1.0017899 -0.92821246 -0.025623718 0.6413683
000170 a9 c6 6b 3e 0d e8 33 bf 81 c3 b1 be 9c f3 96 be
       0.23025002 -0.70275956 -0.3471947 -0.29482734
000180 54 e6 05 3f 61 b5 48 3e ef 08 49 3e e2 4d 6f 3e
       0.5230458 0.1960044 0.19632314 0.23369554
000190 01 88 9d 3d 5f 17 7e 3e 37 e2 6e ba 5c cd 1d 3d
       0.07691956 0.24813603 -0.0009112688 0.038525924
0001a0 e9 f4 33 3d 18 cf c0 3d c5 b8 12 3f d3 0d 4e 3e
       0.043934736 0.094145 0.57313186 0.20122461
0001b0 e2 bb 85 3c 0e 8b 90 3e 2f 18 93 be dc b7 a9 bc
       0.016324941 0.2823109 -0.28729388 -0.020717554
0001c0 08 17 d5 be 4a d3 f6 be f6 b2 3e bf 4a d9 be bd
       -0.41619134 -0.48208076 -0.7449182 -0.09318788
0001d0 f0 ed de be 43 cd e3 3c 28 fe 80 be 7c d6 91 be
       -0.43540907 0.027807837 -0.25193906 -0.2848395
0001e0 e5 5c ed 3d 6c 42 ec 3e dd df ab be 0a 05 7b 3e
       0.11589984 0.46144426 -0.33569232 0.24513641
0001f0 5a f8 ec be 94 a0 4f 3d 18 80 cc 3e c0 4c 19 3e
       -0.46283227 0.05069025 0.39941478 0.14970684
000200 52 a8 f3 3c ae ec 1a 3f e9 89 0c bf 3f 87 a0 3d
       0.029743347 0.60517395 -0.54897934 0.07838296
000210 e6 ef 17 3e 61 c8 1e 3e e9 6b 89 3d 80 33 bf be
       0.14837608 0.15506126 0.06710035 -0.3734398
000220 f6 fd 52 3f 97 cd 83 be 6b 8f 52 bc 20 ee fd bd
       0.82418764 -0.2574279 -0.012851576 -0.12398934
000230 0b f9 0c 3e 8a 8f 33 bf 65 97 16 be 89 6b 2e 3e
       0.13766877 -0.701409 -0.1470619 0.17033209
000240 64 44 c8 3e 44 bf 6a be 83 d0 39 3f 0b 16 a2 3e
       0.39114678 -0.22924525 0.7258379 0.31657442
000250 26 3c ed 3e 16 1b 17 3d 59 f3 09 be 15 02 01 bf
       0.46334952 0.036891066 -0.13471736 -0.503938
000260 ec 48 e0 be a8 90 91 be f6 df 07 be d1 52 07 3f
       -0.43805635 -0.28430676 -0.13269028 0.5286074
000270 85 9a 44 bb a4 30 53 bf b3 cb d6 3d 63 8a e7 be
       -0.0029999327 -0.82496095 0.10488071 -0.45222768
000280 63 ec f7 3d a0 96 8a 3e f9 c9 20 bf 07 b7 45 3f
       0.12105634 0.27068043 -0.62808186 0.772324
000290 95 b8 5d be 5d 01 28 3f 57 57 92 bd c6 05 28 bf
       -0.21652444 0.6562708 -0.07145565 -0.6563381
0002a0 a5 67 24 3d d5 38 f4 3d 2d 4c bb 3d 5d d5 19 3e
       0.040137906 0.11924902 0.09145389 0.15022798
0002b0 9b 6c 12 3f 89 98 7e be 63 13 78 3e 45 55 84 bd
       0.5719697 -0.24862875 0.24226145 -0.06461576
0002c0 39 fd a4 be 09 75 f6 bd 69 0b e4 be 3c 46 c0 3c
       -0.32224444 -0.120340414 -0.44539955 0.02347099
0002d0 2d 23 d2 be 07 03 a0 bd 29 b1 31 3f f1 0f 8e be
       -0.41042462 -0.078130774 0.6941095 -0.27746537
0002e0 2a 00 26 bc 94 dc 2d 3f 51 c0 9f be 52 8c 1f 3f
       -0.010131875 0.679147 -0.31201413 0.62323487
0002f0 35 cd 1c bf 4e 22 a5 3e 83 29 32 3f 56 24 9b be
       -0.6125062 0.32252735 0.6959459 -0.3030116
000300 91 46 66 3f 6e 2a 2b 3f 74 b6 78 be b0 3d fe bd
       0.89951426 0.6686162 -0.2428835 -0.1241411
000310 eb ab 3d be aa 2d 37 bd d4 31 e5 bd 89 f8 8e 3d
       -0.18522613 -0.044721283 -0.111911446 0.06980998
000320 4b 78 d7 3d 2f 40 60 be 40 66 03 bf fa d7 78 3d
       0.10520991 -0.21899484 -0.51327896 0.060752846
000330 1f 91 a8 3e 4a 72 60 3e 2e cf 3f bf 83 61 b7 be
       0.3292322 0.21918598 -0.74925506 -0.35816583
000340 07 45 32 3e 65 f3 8e be e5 d9 33 be 3f 81 43 3e
       0.17409144 -0.2792007 -0.17563589 0.19092272
000350 b7 69 c7 be 02 a1 de 3d d9 a6 da bc 97 1d 5e 3e
       -0.38947842 0.108705536 -0.026690887 0.21690975
000360 e6 d2 c0 3e 8e 03 76 be 2b 6b f8 bd c7 f3 d1 3d
       0.37660903 -0.24024794 -0.12129816 0.10251575
000370 fd 97 af be 5b 70 ad 3e 4e 32 d5 3e 2c 51 2c 3f
       -0.34295645 0.33874783 0.41639942 0.6731136
000380 f4 58 4c 3e 01 5e 89 3e 4b db b3 bd 93 77 ac bb
       0.19955808 0.26829532 -0.08782061 -0.005263278
000390 21 df 36 3e 43 62 ad bd 41 8d 1d 3e 73 cc 06 bf
       0.17858554 -0.084660076 0.15385915 -0.52655715
0003a0 6c 95 b6 be 13 f4 1a 3e 05 05 d1 bd 40 a7 90 be
       -0.35660875 0.1513217 -0.102060355 -0.28252602
0003b0 fc 9c 47 3e 72 59 31 bf aa 23 14 3f 15 63 d0 be
       0.19493479 -0.6927711 0.5786692 -0.40700594
0003c0 ec 46 0a 3f 3b cb 94 3e 80 e3 30 3e 93 c4 83 be
       0.5401447 0.29061303 0.17274284 -0.25735912
0003d0 c0 9e 08 3e 72 c1 4d bc 13 73 00 bf ea 1d de 3d
       0.13341808 -0.012558328 -0.5017559 0.108455494
0003e0 bc 25 a9 bd 99 2f c9 3d 51 83 4d 3e 33 ef c2 bd
       -0.082591504 0.09823532 0.20069624 -0.0951828
0003f0 d9 ac 09 3f f2 29 a1 be 95 f0 16 3f 82 87 b2 be
       0.5377937 -0.31477314 0.5896085 -0.3486901

network_body._body_endoder.seq_layers.0.bias f4 [128]
000000 32 bd 29 be 44 b3 4f 3e 9b e2 8f 3c b9 d1 05 be
       -0.16576079 0.20283228 0.017564109 -0.13068284
000010 fe 6a d5 3d 04 b4 ec 3d 47 58 ac 3d 1e c3 9a 3d
       0.10420798 0.11557773 0.08415275 0.07556747
000020 db 43 ca 3d a8 6b 46 bd ec 8b f3 3d bb ee fb bd
       0.09876224 -0.048442513 0.11891922 -0.123013936
000030 69 47 ac 3d 5b cd 1a 3e 37 41 a8 3d 85 93 0d bb
       0.08412058 0.151174 0.08215564 -0.002160282
000040 50 f6 90 3d 77 a4 52 3c 86 1b f0 3d 7a 22 2c 3d
       0.070782304 0.012856594 0.11724 0.042025067
000050 48 08 92 3d db 58 15 3d fb 9f 6d 3e c0 03 b2 bd
       0.07130486 0.036461692 0.23205559 -0.086921215
000060 97 fe 4d 3d 86 a8 2b 3d cc a8 7d bd 0d 2d fe bd
       0.050291624 0.041908763 -0.061928555 -0.124109365
000070 4a 4e 21 be d9 25 4e bb 2f 80 ed bd e5 6a 82 3d
       -0.15752521 -0.0031455664 -0.11596715 0.06368045
000080 76 4d 17 3e ce c7 ae 3d 5b b4 fb 3d 60 e9 c7 3d
       0.14775643 0.085342035 0.122902595 0.097613096
000090 e9 ce ae bd d1 b4 4d bd 5a 52 05 bd a9 17 b4 bd
       -0.08535559 -0.050221268 -0.03254924 -0.08793575
0000a0 3f 75 8c 3d 22 1c 17 bd 37 cc 18 be 46 fd 5e bd
       0.068583004 -0.036892064 -0.14921652 -0.05444076
0000b0 f6 ed 08 3e ef 65 ef 3d fd 9d 4b bd 7b fe 0d 3e
       0.13372025 0.11689364 -0.049711216 0.13866608
0000c0 5f a4 61 bd b1 30 af bc 7c 2e 20 be 74 3f c8 3d
       -0.055088397 -0.021385523 -0.15642732 0.09777728
0000d0 29 62 f8 bd bb c7 a1 3d 06 90 98 bd f5 1a 8d bd
       -0.121280976 0.07899424 -0.07449345 -0.06889907
0000e0 85 08 b9 bd 2c 12 0a be 98 69 98 3d a1 1b 05 be
       -0.09034828 -0.13483495 0.074420154 -0.12998821
0000f0 5d 8e 2a 3e 5e 52 ba 3d 0d 3f 5c 3d bb e6 ca 3b
       0.1665587 0.090977415 0.053771067 0.006192056
000100 8c 81 bb 3d ee d3 01 be 5f 22 e8 3d 61 e4 07 3e
       0.091555685 -0.12678501 0.11334681 0.13270713
000110 3a f9 75 bd 4f e0 f5 3d 8f c8 92 bd 36 5d dd bd
       -0.060052134 0.12005674 -0.0716716 -0.10808794
000120 f5 7e 48 3d 03 e4 ec bd 1c 79 7c bc 73 5a ba 3b
       0.0489492 -0.11566927 -0.015409734 0.005687052
000130 de 41 aa bd 5d fe 5b 3e 71 02 44 bc 5d e3 3f bd
       -0.083133444 0.2148375 -0.011963473 -0.04684769
000140 7a 3a d7 bc 4c 7e 50 bd 41 49 07 bd 63 84 5d 3d
       -0.026273001 -0.050901696 -0.033028845 0.054081332
000150 c1 45 d3 bd 3f c2 ca bb 4c b3 05 be a4 94 80 3d
       -0.10316039 -0.0061877067 -0.13056678 0.06278351
000160 7e 17 e7 3d 6b 54 0c be e4 1a 85 3e 61 ef 12 be
       0.11283778 -0.13704078 0.25997078 -0.14349128
000170 29 bd 9e 3d f6 df c9 bc 92 8d 03 3e 21 78 22 bd
       0.07750923 -0.024642926 0.12846974 -0.039665345
000180 d2 74 32 3d 20 2c ed bd 22 41 ee 3d 13 6e 75 3d
       0.04356844 -0.11580682 0.11633517 0.059919428
000190 fc 59 ca bd 74 47 3a be c4 95 69 bc 0e 7a 0b 3e
       -0.098804444 -0.1819132 -0.014256898 0.13620779
0001a0 15 35 d1 bd a9 4e 01 be 2a 4f a1 3d f6 78 0e 3c
       -0.10215203 -0.12627663 0.078764275 0.0086958315
0001b0 58 7e 0d 3e 33 08 b5 3d 83 3c 5d 3d 3a 39 33 3e
       0.13817728 0.088394545 0.054012787 0.17502299
0001c0 82 e3 20 bd 92 dc d7 bd 1c 63 9c 3d 0a 1f 06 3b
       -0.03927947 -0.10540117 0.07636091 0.0020465278
0001d0 a1 2d 41 bc c0 0f 9f bd 1a 41 21 3e 29 0a f6 bd
       -0.011790664 -0.07766676 0.1574749 -0.12013657
0001e0 f8 6d 2d 3d e8 d1 be 3c 27 16 89 3d fe b6 dd bd
       0.042341202 0.02329345 0.06693678 -0.108259186
0001f0 92 7e 09 3e ef 26 22 be 4a 5e 68 3d 48 25 5a 3e
       0.13427189 -0.15835164 0.056730546 0.21303284

network_body._body_endoder.seq_layers.2.weight f4 [128, 128]
000000 82 2f d6 3d dd ee 88 bd 52 75 98 3c 66 db 69 bd
       0.1045828 -0.066861846 0.01861063 -0.057094
000010 13 2f d0 3c 00 34 fb bb 4b c5 a6 bb 9f 8d db 3c
       0.025413072 -0.007666111 -0.005089437 0.026800929
000020 bd a9 73 bd 41 76 05 3d 1a 63 8b bc ae e1 ec bd
       -0.059488047 0.03258348 -0.017015029 -0.115664825
000030 73 da 62 3e 73 71 9c 3e 7f cc a1 bd f9 01 75 3d
       0.22153644 0.30555305 -0.07900333 0.059816334
000040 46 e0 74 3d 6c a7 46 3d 47 3e 03 bd 4f 93 ae 3d
       0.059784196 0.04849951 -0.032041814 0.08524191
000050 8b ba 85 bd 63 8e d4 bd d0 fa aa 3d 8b cb a1 3d
       -0.06529721 -0.103787206 0.0834862 0.07900151
000060 4e 0e 7f bc 07 5a 0f 3e 7c 12 2e bc d8 ed 98 bc
       -0.015567375 0.13999186 -0.010624524 -0.0186681
000070 ba 5c 06 3e b1 f3 8e 3d 3d 95 16 bd 32 9a 5b bd
       0.1312131 0.06980074 -0.03676342 -0.05361385
000080 9f 39 3f 3d 71 da b8 3b 46 d5 e8 3d 9e de 8e bc
       0.04668581 0.0056412746 0.11368804 -0.017440137
000090 cf 14 b2 bc a7 86 02 be f7 d7 41 3d a3 29 9d 3d
       -0.021738438 -0.12746678 0.0473251 0.07673957
0000a0 b3 b6 da 3d 5f 1d 75 bd 6e 7f 61 3d bd 2e cf 3d
       0.10679378 -0.059842464 0.055053167 0.101163365
0000b0 b4 e9 ec bd 5a ae c1 3d 84 70 65 bc 1d 80 18 3e
       -0.11568013 0.09457083 -0.014003877 0.14892621
0000c0 6e 49 77 3e dc 16 c1 bc 6c 36 28 be 85 8d 22 3e
       0.24149105 -0.02357047 -0.1642701 0.15874298
0000d0 24 9f 86 3d 6b fa bd 3d bd bb 7e bc ce 00 2d 3a
       0.065733224 0.09276279 -0.01554769 0.0006599546
0000e0 e8 fc 47 3e b0 38 97 bd 6a aa af bc de 68 8f bd
       0.1953007 -0.07383859 -0.021443564 -0.07002424
0000f0 fe 6f d2 3d 0c 6a 45 3d 16 5c 0f 3c e7 6f 65 3c
       0.10275267 0.048196837 0.008749982 0.01400373
000100 36 25 08 3e 10 90 7b bd 1e 76 4c bd 46 e9 2e be
       0.13295445 -0.061416686 -0.049917333 -0.17081174
000110 20 91 c2 bd ee 4f 07 3e cd 4a 01 be 9f 8a 9e bd
       -0.09500337 0.13214085 -0.1262619 -0.077412836
000120 51 d4 8a bd 3f 83 6b be d1 c2 dd 3d 9d 02 84 3d
       -0.067787774 -0.22999285 0.10828174 0.06445811
000130 38 68 bd 3d ca b7 9e bd 73 31 62 bd 8c 35 9a 3c
       0.09248394 -0.07749899 -0.05522294 0.018824361
000140 fb bd 66 bd 74 43 11 3d 9d be a8 3c e2 97 c3 bd
       -0.056333523 0.03546472 0.020598704 -0.09550454
000150 22 c8 37 3d c4 52 e9 3c 50 ae 4c bd 80 5d 7d bd
       0.044868596 0.028481849 -0.049970925 -0.061856747
000160 f2 43 92 bd 47 61 15 be 50 9d cb 3c a4 1f 85 3d
       -0.07141866 -0.1458789 0.024855286 0.065001756
000170 18 2f 5e 3d f2 7a d2 bc 13 c5 18 be e3 a7 7d 3d
       0.05424413 -0.02569339 -0.14918928 0.061927687
000180 27 8c 07 bd 7f 0e ff 3d b1 dc 9f bb f7 03 28 bd
       -0.033092644 0.12453937 -0.0048786034 -0.041019406
000190 c3 f7 af bd f3 82 26 be 9a fb 1f 3d e0 4b 6f 3e
       -0.08592179 -0.1626089 0.039058305 0.23368788
0001a0 e6 28 7b bc c8 41 1e 3e f6 d4 41 bd e7 ad c9 bd
       -0.015329575 0.15454781 -0.047322236 -0.09847622
0001b0 b8 b4 84 3d f2 6d 83 3d 99 04 f8 3c f7 17 8b bc
       0.06479782 0.06417455 0.03027563 -0.0169792
0001c0 fd 25 a5 3b 99 ae f5 3d b7 db 33 3e a9 12 00 be
       0.005039929 0.119961925 0.17564283 -0.12507118
0001d0 62 58 2f 3e e2 5e 3e bd 10 76 38 3c 17 5a 45 bd
       0.17123559 -0.046477206 0.011258617 -0.04818162
0001e0 0f 4a 8f 3d 76 94 14 3d 91 43 82 3d e4 67 32 3d
       0.069965474 0.036274396 0.063605435 0.04355611
0001f0 62 75 fd 3c a7 c5 f7 3d b4 e1 dc bd fd d6 1e 3d
       0.030939762 0.12098246 -0.10785237 0.038779248
000200 56 c9 f4 3c 9e a6 5a bc 8d 24 b5 bc 70 25 82 3c
       0.02988116 -0.013345389 -0.022112155 0.015886992
000210 e9 c2 9f bb 8c 29 73 3d 50 b3 f5 3d 08 13 84 3d
       -0.00487553 0.059365794 0.11997092 0.064489424
000220 f1 90 f9 bc 83 2a dd bd d9 e1 dc 3d b1 1f 72 bd
       -0.030464621 -0.10799124 0.107852645 -0.059112255
000230 cc a6 59 3c b1 3d a8 bc 23 41 e6 3c d3 cf 07 be
       0.013284396 -0.02053723 0.028107231 -0.13262872
000240 1d 5b 87 3d 87 f7 08 3e 81 e3 a6 3d 7a 33 c3 bd
       0.06609175 0.13375674 0.08148862 -0.09531303
000250 9e 91 3e bb c2 0e c5 bd 31 ce 43 bb 16 43 2e be
       -0.0029078494 -0.096219555 -0.0029877538 -0.17017779
000260 66 b6 6a bd 9f 17 f6 bc b3 06 82 bd d1 3e 56 be
       -0.057302855 -0.03004056 -0.06348934 -0.209224
000270 73 7d 51 3d 2a 4e 16 3c 92 af 94 3d 2c 55 bb 3d
       0.05114503 0.009173909 0.0726005 0.091471046
000280 91 8c 80 3d fd 1c 5f bd 65 a0 28 3d da c1 67 bb
       0.06276811 -0.054471005 0.04116859 -0.0035363347
000290 e5 83 c9 3d ed a7 b9 ba ac 82 09 be 96 13 b9 3d
       0.0983961 -0.0014164426 -0.13428754 0.09036939
0002a0 c1 e8 46 bb 17 be 0e be eb 42 ab bd 3c cc c4 bc
       -0.0030351134 -0.13939701 -0.08362373 -0.024023168
0002b0 63 8d f9 3b b4 43 07 3e 2e d0 9e 3d f9 57 1a 3e
       0.0076157316 0.1320942 0.07754551 0.15072621
0002c0 7f b1 d6 3d 40 44 e1 3d e1 85 81 3b bd 38 90 3d
       0.104830734 0.10999346 0.003952727 0.07042072
0002d0 18 95 35 be 16 4b 8a 3d e0 f0 0d be 79 e6 9b bd
       -0.17732656 0.06752603 -0.13861418 -0.076123185
0002e0 d1 ec 1a 3e 58 2a 1a bc c0 1d 0f be 9a c7 9c bd
       0.15129401 -0.00940951 -0.13976192 -0.076552585
0002f0 e7 1b 8b bc 63 8d 1f 3d 49 69 0f be 42 91 92 bc
       -0.016981078 0.038953196 -0.14005007 -0.01789153
000300 9b d8 c1 bc 30 89 ad 3c 81 4f 03 be 13 53 2b bd
       -0.023662856 0.02118358 -0.12823297 -0.041827273
000310 f5 bc 35 bd ea e4 b7 3d 13 f8 f5 3d e6 d3 0e be
       -0.044369657 0.08979209 0.12010207 -0.1394802
000320 45 77 40 bc c5 1f b8 bd 4f 5c e6 bd 02 99 3e be
       -0.011747186 -0.089904346 -0.11248075 -0.18613055
000330 93 8c 39 be 7b 3a 09 3e 0d e5 11 be 7f f2 51 3d
       -0.18120031 0.13401215 -0.14247532 0.051256653
000340 40 6f 74 be 91 2b d9 bc 1d 33 b1 bd 31 92 95 bd
       -0.23870564 -0.026510032 -0.08652327 -0.073032744
000350 81 8c 3c 3d 03 37 f0 bd 3a 6a c4 be f1 20 68 bd
       0.046032432 -0.11729243 -0.38362294 -0.05667204
000360 ea ef 35 bd 0b 56 cb bd 00 14 3b bd 49 d3 15 be
       -0.044418253 -0.09928521 -0.04567337 -0.1463138
000370 10 0b 0c be e5 96 0b bd 1f b1 00 3d 39 e0 1d bd
       -0.13676095 -0.03407945 0.031418916 -0.038543914
000380 f3 be 9e 3d 5d bb 11 bd 5e 76 30 3e 72 4e 4b 3c
       0.077512644 -0.035579074 0.17232653 0.01240884
000390 be 18 2b 3d 12 5d 24 bd 57 fd 95 bd 46 39 a0 3d
       0.041771643 -0.04012782 -0.07323711 0.07823424
0003a0 59 3d f6 3d 5e 7c f4 bc 9b 50 69 bd f8 d5 5d 3d
       0.1202342 -0.02984446 -0.056961637 0.054159135
0003b0 54 5c cf 3d ae 50 af bd 5b da b1 bb 54 df 7e 3d
       0.10125032 -0.0856031 -0.0054276413 0.0622247
0003c0 9b 07 52 bd 58 3e be bc b3 55 33 3c 71 54 11 3e
       -0.051276784 -0.023223087 0.010945725 0.14192368
0003d0 4b 11 aa bd 01 b0 39 bd 2f 95 47 3d 89 ba c5 bc
       -0.083040796 -0.045333866 0.048726257 -0.024136798
0003e0 f5 de d1 3c 57 92 f2 bb 1d f4 6f 3d 1f 2c db 3d
       0.02561901 -0.007402699 0.058582414 0.10701775
0003f0 44 1a ac bd 42 3d d4 bb b5 60 10 bd 01 e5 4d 3c
       -0.08403447 -0.006477029 -0.035248477 0.012566806

network_body._body_endoder.seq_layers.2.bias f4 [128]
000000 45 bf c9 3d a7 36 c3 3d aa 4e a8 3c fc 3e db bd
       0.09850935 0.095319085 0.020545322 -0.10705373
000010 5b d0 ac 3d 18 ee 5e 3d 03 1d 8f bd 3f e6 aa 3d
       0.08438178 0.054426283 -0.069879554 0.08344697
000020 a2 44 27 3e e9 53 cd 3d d4 ce 0a 3e c4 1d 50 3e
       0.16334775 0.1002577 0.13555461 0.20323855
000030 da cb 15 3d 70 3e c3 3d 39 4b 12 3e d7 ad c9 bc
       0.03657136 0.095333934 0.14286508 -0.024619026
000040 fb 4a a1 3d e4 da ac 3c 6c 06 39 3d 1c 64 4e 3d
       0.078756295 0.021100469 0.04517214 0.05038844
000050 ed dd 6b 3d 1c 15 97 bc 31 64 15 be eb 26 c7 3d
       0.05758469 -0.018442683 -0.14589001 0.0972422
000060 4b 90 2c 3d 69 27 69 3d 03 0a 8e 3d 6c 96 94 bb
       0.042129796 0.05692235 0.06935503 -0.0045345332
000070 f4 0b d3 bc d3 02 a4 bc 10 83 15 3d 69 96 26 bd
       -0.025762536 -0.020020878 0.036501944 -0.040670786
000080 32 bc b7 bd 4b d3 b9 bd 6e 96 32 3e 15 eb 81 3d
       -0.08971442 -0.09073504 0.17440197 0.063436665
000090 72 46 1f bd e6 bd 4d 3e 20 69 96 3d 4c 59 55 bd
       -0.03888554 0.20091972 0.0734427 -0.052087113
0000a0 b4 9e 01 bd bb 27 df 3d e1 92 2e 3c 92 e7 e5 bb
       -0.03164549 0.1089625 0.010655136 -0.0070161307
0000b0 8e 33 59 3c 2c 51 3a 3e 32 54 bc 3a 6c b6 8a bd
       0.0132569205 0.18195027 0.0014368354 -0.067730755
0000c0 00 25 42 3e 86 ee 98 3d 98 74 15 3e 85 da de 3d
       0.18959427 0.0746737 0.14595258 0.10881523
0000d0 04 44 b0 3d e7 73 18 bd 0b 4a 87 bd 84 48 27 bd
       0.08606723 -0.037219908 -0.066059195 -0.04084064
0000e0 ad 1d 8a bc b4 ef 15 3c 9d 15 b4 3d fe 3d 97 3c
       -0.016859854 0.009151388 0.08793185 0.018462177
0000f0 85 00 8e 3d 71 ba 26 be d9 f2 66 3b 84 22 03 3e
       0.06933693 -0.16282059 0.0035239963 0.12806135
000100 f0 4d 32 3e 1f 0b 42 bc 6c 10 2e 3e 98 a0 fe b8
       0.17412543 -0.011843472 0.16998452 -0.00012141577
000110 52 a6 a3 bd 1a 8b 8f bd b6 82 ce bd 68 5e d4 bd
       -0.079907075 -0.070089534 -0.10083525 -0.10369569
000120 76 be 96 bd 57 53 2e 3d ca f1 c1 3d c2 2d 1e b8
       -0.07360546 0.042559948 0.09469946 -3.771275e-05
000130 14 af b2 bd a2 75 ee bd bd a9 a4 bd ac b3 d5 3d
       -0.087248 -0.116435304 -0.080401875 0.1043466
000140 44 3b d8 ba 99 6a 75 3d 6e a6 ea bd 52 9b 17 3e
       -0.0016497155 0.059916113 -0.11457525 0.14805344
000150 21 a7 05 3e b0 de b1 3d 92 46 9e bc fb a9 ef bd
       0.13052036 0.086850524 -0.01932076 -0.11702343
000160 e5 4a a1 3d 26 82 f1 bc 14 13 b5 bb 57 62 a5 bc
       0.07875613 -0.029481005 -0.005525956 -0.020188494
000170 19 67 2c 3d 79 07 cc bd 74 f3 0b 3e 8b b5 94 3d
       0.04209051 -0.09962363 0.13667089 0.07261189
000180 45 e8 8f 3d 4f 33 08 be 0e c0 16 3e 5f 2e 00 3d
       0.07026724 -0.13300823 0.147217 0.031294223
000190 6b a6 09 be eb 78 d5 3d a4 1d ac bd 27 e4 82 3d
       -0.1344239 0.10423454 -0.08404091 0.06391173
0001a0 a9 64 7c 3d 06 0b 65 3d 10 95 d2 3d 6e cd ce 3c
       0.061619435 0.055918716 0.10282338 0.02524444
0001b0 23 82 5a 3d 2f d5 93 3b ff dc 4d 3e 1a fb 02 3e
       0.053346764 0.0045114974 0.20103835 0.127911
0001c0 b5 65 82 bd 39 0f fe bd 91 45 ac 3d 70 cc 05 3d
       -0.06367055 -0.12405247 0.08411706 0.03266567
0001d0 fc fa 66 3d e4 f4 45 bd 34 d5 4a bc 6b b7 87 bd
       0.0563917 -0.04832925 -0.012379933 -0.06626781
0001e0 dc 4f 9f 3d de d3 00 3e e5 b6 9b bc 69 ff 8f 3c
       0.07778904 0.12580821 -0.01900811 0.017577844
0001f0 99 d9 4a 3d b6 cd cd 3d 72 47 29 3e 71 8f 24 bd
       0.049523924 0.10049002 0.1653116 -0.04017586

action_model._continuous_distribution.log_sigma f4 [1, 3]
000000 ad 1e 7e 3e 53 10 7d 3e b9 75 55 3e
       0.2481639 0.24713258 0.20845689

action_model._continuous_distribution.mu.weight f4 [3, 128]
000000 77 1d a1 bb aa b8 9c bc 39 41 5c 3c 3f 81 b3 bb
       -0.0049168426 -0.019131023 0.013443285 -0.005478054
000010 8b 1b 0c 3d d5 15 5f bc c4 43 67 bc a6 6c 9e bc
       0.034205955 -0.013616045 -0.014115278 -0.019338917
000020 9a ad 4d bd 64 89 95 3d 16 92 04 3c 1e b6 20 bd
       -0.050214387 0.07301596 0.00809147 -0.03923618
000030 c1 40 20 3d c0 60 5a bd 35 d1 dd 3c 9b fe db 3b
       0.039124254 -0.053314924 0.027077297 0.006713701
000040 11 40 e0 3b 33 38 e9 bb 8c 1e 1a bd b7 ac 2a 3c
       0.006843575 -0.007117295 -0.037626788 0.010417155
000050 02 c0 e5 3c 18 6b bc 3c c0 de 95 3c 12 5b 07 bc
       0.028045658 0.023000285 0.018294692 -0.008261459
000060 15 ec 7b 3c d2 6e b7 3c 8c b3 8b 3b a3 f2 21 3d
       0.015376111 0.02239171 0.004263347 0.039538037
000070 77 6b a6 3b 6a b4 a0 bc f7 19 21 bc db 2f 12 3c
       0.005078729 -0.019617278 -0.009832851 0.008922542
000080 32 93 39 3c 11 81 59 3c d6 fa 05 bc 5f 0c fe 3c
       0.011326598 0.013275401 -0.00817748 0.031011758
000090 ed de 84 3c 0e a7 d4 bb 07 79 8d bc 50 8c da 3c
       0.01621958 -0.006489641 -0.017269624 0.026678234
0000a0 63 60 b8 bb f5 0e d8 3c 31 12 aa 3c 4e 82 ed 3c
       -0.0056267246 0.02637432 0.020760627 0.028992798
0000b0 30 5e 0f bd 8e 28 91 bd 1f 60 2e 39 83 46 02 3d
       -0.035001934 -0.07087813 0.00016629741 0.031805526
0000c0 f1 4b 12 3c 6f 3c e3 3c c3 7c cd ba 41 5b 07 bd
       0.008929239 0.027738778 -0.0015677441 -0.03304601
0000d0 02 f0 d7 3c db 1c b4 3d d1 b6 5d bb 21 ec 88 ba
       0.026359562 0.08794566 -0.003383089 -0.0010446348
0000e0 97 01 16 3a 59 0b a7 3d 99 38 2c bc 30 8c 85 3c
       0.0005722283 0.08156461 -0.010511541 0.016302198
0000f0 39 0a 97 3c b3 71 ef b9 ff 11 c5 3c 99 0a 94 bc
       0.018437492 -0.00045670345 0.024056433 -0.01807146
000100 0c d9 fc 3b f8 50 20 3e a9 3b 72 3b ed bd a8 3c
       0.0077163037 0.15655887 0.003696183 0.020598376
000110 04 cb c4 bc ef 2b 85 bd 07 d9 42 bd 63 0a af 3c
       -0.024022587 -0.0650252 -0.047570255 0.021367257
000120 b4 4f 53 3c c6 c5 79 3c ea 0b 59 bc ca ca 15 3e
       0.012897421 0.015244907 -0.013247469 0.14628139
000130 75 3a 33 3c eb 6e 99 bc b3 ea 1a 3b 38 5e 2e bd
       0.01093923 -0.018729648 0.0023638427 -0.042570323
000140 0a 6f a7 bb 62 7e 4f bb 38 9f 35 bc 6a 71 b9 bc
       -0.0051096724 -0.0031661023 -0.011085324 -0.022637088
000150 88 12 c2 bc 4f 6a 1d 3d 62 3f a9 ba 02 e8 db 3b
       -0.023690477 0.038431462 -0.0012912566 0.006711007
000160 57 08 0a bd 6a a9 92 bc f1 09 9d 3d 54 1d 38 3c
       -0.03369936 -0.017903049 0.07667912 0.011237461
000170 28 ef ec 3b c9 9a 97 3b 5e 91 77 3d 5b c2 a5 bc
       0.007230658 0.004626606 0.060441367 -0.020234277
000180 70 3b 57 3b 35 7f 12 bb 0b 04 5a bc 74 d5 6f 3c
       0.0032841824 -0.0022353653 -0.013306628 0.014638294
000190 09 6b 0e bd f1 68 a1 3c e4 fd e7 3c 6f a9 5f 3c
       -0.034770045 0.01970336 0.028319307 0.013651236
0001a0 02 50 50 3c 1f c6 f5 3a 58 3f 5f 3c d1 1a ae 3b
       0.012714388 0.0018751061 0.013625942 0.0053132554
0001b0 08 61 f2 bc 38 ee 02 3d 7d 2e d2 3c a0 2a 41 bd
       -0.029587284 0.031965464 0.025656933 -0.04715979
0001c0 79 22 ec bc 1d 5f c9 bc 55 a1 c8 bb 27 da bb bc
       -0.028825032 -0.024581486 -0.006122748 -0.022931172
0001d0 96 da 32 3c 07 e8 31 3e 3f 20 09 3d 46 0a a7 3b
       0.010916373 0.17373668 0.033478018 0.0050976602
0001e0 bf 86 8b bd 81 20 2b bc 6f 04 2e bc 84 8e be 3c
       -0.0681281 -0.010444761 -0.010621174 0.023261316
0001f0 70 a0 0b 3a 24 8d d8 bc 34 48 7d bd 71 ba 10 3d
       0.0005326336 -0.026434489 -0.061836436 0.035334054
000200 be 05 13 3d 22 34 d1 3c f0 d0 83 bc c6 21 28 bc
       0.035894148 0.025537554 -0.01609084 -0.010261958
000210 0d d8 90 bc 76 36 b0 bb 51 57 0e 3c c2 69 ec bb
       -0.017681146 -0.005377586 0.00868781 -0.0072147558
000220 a0 50 41 3d fb bb 2a bd 6b a3 01 3c 12 52 c6 bc
       0.04719603 -0.04168318 0.007912497 -0.024209056
000230 62 b1 06 3d 4b f5 e5 bc ac 63 8f bc f0 27 ca bb
       0.03288401 -0.028071066 -0.017503582 -0.0061693117
000240 83 7a 2a 3d 1d b2 61 bb 2c 6b 82 3b 0e fe d7 bb
       0.041620743 -0.003443844 0.003980061 -0.006591565
000250 ac 15 bd bb a4 13 00 3c 40 06 e9 3b 9e c6 3d bc
       -0.0057704058 0.007817183 0.0071113408 -0.011582999
000260 b2 7b ae 3c 2e 5e 01 bd 88 c9 2a bc 2f f1 0d 3d
       0.021299217 -0.031583957 -0.010424025 0.03465384
000270 ae 72 4c bc 50 ed 2a bc b0 83 0a bd 47 d5 3c bd
       -0.012478514 -0.010432556 -0.033816993 -0.046101835
000280 2a ab be bb d3 1a a6 3c 18 d3 ef bc 08 b1 a6 bc
       -0.005818744 0.020276463 -0.029275462 -0.020348087
000290 7d e6 e0 3b b8 bc b6 3c 83 84 fd bb be 37 e6 3b
       0.006863414 0.022306785 -0.007736744 0.007025688
0002a0 24 c3 58 bc 9b c1 52 3c f2 6b 0a bd e5 38 5e bc
       -0.013230119 0.012863542 -0.03379435 -0.013563369
0002b0 ee 18 e6 bc a4 ee 65 3a 3c 38 a0 3c f1 94 53 3b
       -0.02808806 0.0008771217 0.019558065 0.003228482
0002c0 f1 45 62 bb c7 59 b6 3b 77 0a e6 bc a3 7b aa bb
       -0.0034526552 0.0055649015 -0.028081162 -0.005202727
0002d0 3e 0c 0e bc 5f f8 48 bd 01 32 b9 bc 45 b8 c7 3c
       -0.008669911 -0.04906499 -0.022606852 0.024379859
0002e0 ef d9 bf 3c 5e 5f 27 be e4 04 e6 3c 87 f5 0f bd
       0.023419349 -0.16344973 0.028078504 -0.035146262
0002f0 6d c9 b8 bc c6 aa 0f 3d 0a 29 e0 bc 9d 65 9c 3c
       -0.022556985 0.03507497 -0.027363319 0.019091422
000300 ee a1 65 bc a4 0d f0 bd 04 47 50 bc 1a d8 e9 3c
       -0.014015658 -0.11721352 -0.012712244 0.028545428
000310 e6 fa a6 bc f6 56 5c 3c f6 aa 54 3c 77 65 b6 bb
       -0.02038331 0.0134484675 0.012980213 -0.005566295
000320 a6 ab 9f bc b4 fe a0 3c 46 f6 0a 3c 4f e8 15 be
       -0.019491028 0.019652702 0.008481568 -0.146394
000330 24 ce 6b 3c 75 e2 a2 3c d8 79 90 3c 9f dd 90 bc
       0.0143924095 0.019883374 0.017636225 -0.017683802
000340 43 b4 06 3b 02 3c 22 3c c7 51 39 3c c9 76 6b bb
       0.0020554222 0.009902002 0.011311001 -0.0035928956
000350 05 f0 0f 3d 5f 10 d8 bc 6d fe f8 3b 6b c5 35 3d
       0.03514101 -0.026374994 0.0075986893 0.044377726
000360 f4 9e 83 bc ed 3f 91 3d 6c 97 b7 bd 08 13 d1 3c
       -0.016067006 0.07092271 -0.08964428 0.02552177
000370 16 d1 13 3d 37 1e 5d bd d9 49 12 3d 8d 60 da 3c
       0.03608807 -0.053983893 0.035714958 0.026657367
000380 ce f1 d5 bc c6 0d 4d 3d db 94 c0 3c 34 a6 f5 bc
       -0.026116278 0.050061963 0.02350848 -0.029986478
000390 a2 67 2a 3d 0e 36 ee 3c 3e a1 8f 3c 15 53 6d 3c
       0.04160274 0.02907851 0.017532941 0.01448514
0003a0 1b 43 bf 3b 23 cf 3b 3c 71 b2 bd bc d3 2a f6 3b
       0.005836857 0.011462959 -0.023156377 0.0075124293
0003b0 6e 21 5a bc f6 0e 82 bc 09 be f5 bb b7 53 2a 3d
       -0.013313634 -0.015876275 -0.0074994606 0.041583743
0003c0 37 74 ec bc 78 4e 8a bc 05 ff 42 3d 04 6b cc 3c
       -0.02886401 -0.01688312 0.047606487 0.024953373
0003d0 be b2 85 bc 65 ca 98 bd f7 87 9d bb 9e 19 0a bd
       -0.016320582 -0.07460479 -0.004807468 -0.033715837
0003e0 4c b9 4f bc e7 23 ef 3c 16 9d f5 3b 5d e6 54 3a
       -0.012678456 0.029191924 0.0074955327 0.0008121485
0003f0 24 3a 95 3c cb e7 21 bc fb 86 f7 bb cd ad ad bc
       0.0182162 -0.009881924 -0.0075539327 -0.021201039

action_model._continuous_distribution.mu.bias f4 [3]
000000 84 d8 03 bd 67 18 05 3d 47 f7 9a bd
       -0.032188907 0.032493975 -0.07566696
