Drone-AI/Assets/Prefabs/DroneAI-Behavior.onnx (onnx, 73189 bytes, 7 tensors)

network_body._body_endoder.seq_layers.0.weight f4 [128, 6]
00000000: 39ae 4fbe 92ac f5be 957c 143e 6f7d ca3e
00000010: e76d bbbe 2d09 c93c 29db 8d3e 34b8 f33d
00000020: b927 7d3e 50cd 85be baa4 b9be b9b8 233f
00000030: ec70 113f cc4e ebbe f73c cfbd 1bce 503f
00000040: 950d f4bd 9903 10be dea4 4c3e aaed 88bd
00000050: d978 8abe 066d 1c3f 7664 68be 4702 863e
00000060: ce0b 81bf 399f eebe 6902 05be 8194 6a3e
00000070: 4feb 3dbe 622b 4bbe cb1f 25bd 1a8e 19be
00000080: 8c80 233f 26b7 8abe c422 e8be 9eb9 f4be
00000090: 2654 9c3e ec8e 4cbe c49d a03e fb6a 153f
000000a0: 250f 723e 4f93 63be c4c0 1e3e c4e2 01bd
000000b0: 4a24 ad3e 3344 0abf 7dea 0a3e 0ea1 6fbe
000000c0: 7d77 9dbe 7fe0 a33e 953b a23c 76bc 1f3d
000000d0: edb9 10bf 1f86 99be 256c 89be c5ab 193d
000000e0: 2647 d23d 7f99 09be 9aac adbe 408b d43e
000000f0: 2c45 64bf 5190 d43e 8bb9 4cbe 4a26 5fbf
00000100: a35b 203f b85e 36be 3839 59bc d503 f8be
00000110: 957f bb3d e655 49bf 9ec1 fb3e 3746 9c3d
00000120: e0ad 693d 20f0 5a3e ae1d 2ebd dc21 b03e
00000130: af06 223f 4d26 b63e 16f8 1cbd 2e10 32be
00000140: d76a bcbe 22ce febe 471a 6f3e ed1c a1bd
00000150: 18dd 4fbe 3c2e bc3c 42e2 673c e0a5 be3e
00000160: 45c0 3cbf 30c4 b73c 57ac 94be d6db 65be
00000170: bc0c 1dbf 374f 11bf 1f5a b1bd 9d38 9e3d
00000180: 1032 f4bd 9fd1 4e3e 1e5b 123f 36da 473e
00000190: 3fdd 05be e25c e9be 1ee5 94be a1b9 133e
000001a0: 80c2 023e e654 653f 3255 a0be 8a5b 81bd
000001b0: efe9 b0be 0f5b 993e 040a 19be 59e0 d63d
000001c0: 0767 0e3e ef22 a03e 3dc8 c3bc c360 14be
000001d0: 37e9 ee3e 276f 8abe 5857 213c 66bb ca3d
000001e0: e8a0 07bf 1979 693e fe8f a83e 29d2 d83e
000001f0: f819 333e 8fe6 a13e f3d0 61be 0882 fcbd
00000200: 737c d7be 9b7b 94bc a62d 2d3f 2953 2a3e
00000210: bbda ab3e c6b4 09be 0b7a 33be 8856 b13e
00000220: 5629 ba3c 6c78 81be c35d 623d 4f3f 67be
00000230: b35e 483f d17d 943c 1f77 2e3d c345 9cbc
00000240: 2378 803b 9077 97bc 398a 10be 44b0 573f
00000250: fab7 9f3e 1e7c 093f 32a0 f2be 23ed 083e
00000260: 465b f7be eeb6 a1be 6df8 ccbe 298a 2f3f
00000270: f1dc 15bc b605 783e 1a2c 223e 567c 3cbe
00000280: 82ff 613e 006b 1a3f e7f0 963d fc1f 72be
00000290: b7ad c23e 560f bcbd ecd3 153f 45b9 92be
000002a0: 8146 273f 1cc7 963e 145b b8be fc0b c43e
000002b0: 37e2 dd3d 5aa3 3d3d cd41 27be 550f a83e
000002c0: efc9 dc3d 5940 903e 2a17 6abe 6805 88bd
000002d0: 0e8b 0cbe 3696 43be 7b5e 8ebe 2e80 a5be
000002e0: 65e4 0dbf 7033 643e d783 51be 55c4 cdbc
000002f0: 761d 9f3d 569f db3e de56 7dbf 03bd eebe
00000300: b003 91be d07e c33d 0e1f 0d3f a7c8 373f
00000310: b7bb b3bb 45e4 45be 9f39 103f dc3f e4bd
00000320: 7076 073f e91e f03d 0b95 9bbe d959 0dbf
00000330: 8045 0dbf cc67 2c3e 0465 37bf ffe7 823e
00000340: 9274 533f a81b 3b3e b3fe 6d3e c989 4b3d
00000350: 4824 6f3e d7d5 f93c 4655 6f3d 5c73 3c3c
00000360: 9112 843e 52e7 143f f809 233e 67b6 233e
00000370: 9db8 15be 70b8 d43d 4ae3 2abe d358 b9be
00000380: 69d5 b43e 0f09 48bf 48f6 67be 45b2 403f
00000390: aef0 ffbe 6f6f 153d f90f e1be c42a b33e
000003a0: 109d b63e f9ef 013f 0409 fcbb 5576 d73e
000003b0: 178e 12bf d154 3abe b2a7 5d3f a210 3b3f
000003c0: 0ca9 bdbe 8960 d8bd f7a0 4bbe 7b26 dcbe
000003d0: e5d5 923e 6ae0 acbe 30ad aebe 232e 353e
000003e0: 4d71 253f 1d96 a9bd 1059 c2bd 6ee6 e53c
000003f0: cf07 813e 957a 683d 713e ebbe 6fb5 f6be
-0.20281304 -0.47983223 0.1450065 0.39548823 -0.36607286 0.024540508 0.27706268 0.11900368
0.24722184 -0.26133204 -0.3625849 0.6395374 0.5681293 -0.45958555 -0.1011905 0.8156449
-0.11916653 -0.14063872 0.19984767 -0.06685956 -0.27045324 0.61103857 -0.22694573 0.26173612
-1.0081728 -0.46605852 -0.129892 0.22908212 -0.18546794 -0.19840768 -0.040313523 -0.14995614
0.6386802 -0.27092856 -0.45339024 -0.47797865 0.3053295 -0.19976395 0.31370366 0.58366364
0.2363859 -0.22224163 0.15503222 -0.0317104 0.3381675 -0.54010314 0.13566013 -0.23401281
-0.30755225 0.32007214 0.019803802 0.03899809 -0.565337 -0.2998514 -0.2684032 0.037517328
0.10267477 -0.1343746 -0.33920747 0.4151249 -0.8916805 0.41516355 -0.19992654 -0.871678
0.62639827 -0.1780957 -0.013258271 -0.48440424 0.09155194 -0.78646696 0.49171156 0.0763058
0.057050586 0.21380663 -0.042508774 0.34400833 0.6329145 0.35576096 -0.03832253 -0.17388985
-0.36800262 -0.49766642 0.23349868 -0.07866845 -0.20299184 0.022971265 0.014153065 0.37235928
-0.7373088 0.022432417 -0.29037735 -0.22447142 -0.61347556 -0.567615 -0.08659767 0.07725642
-0.11923611 0.20197152 0.57170284 0.19516835 -0.1307268 -0.45578676 -0.29081053 0.1442628
0.12769508 0.8958267 -0.31315 -0.06316288 -0.34553477 0.29952285 -0.14945227 0.1049201
0.1390649 0.31276652 -0.023899192 -0.14490037 0.46662304 -0.27037928 0.0098474845 0.09899025
-0.529799 0.22800101 0.32922357 0.4234784 0.17490375 0.31621215 -0.22052364 -0.12329489
-0.42087135 -0.018125346 0.6764778 0.16633286 0.33565316 -0.13447866 -0.17527024 0.3463633
0.022724789 -0.25287187 0.0552652 -0.22582744 0.782695 0.0181264 0.04259407 -0.019076234
0.0039205714 -0.018489629 -0.14115228 0.84253335 0.3119505 0.5370501 -0.47387844 0.1337171
-0.48311824 -0.31584877 -0.40033284 0.6857019 -0.009146915 0.24220929 0.15837136 -0.18406805
0.22070125 0.6031952 0.07370167 -0.23645014 0.3802316 -0.091826126 0.5852649 -0.28656974
0.65341955 0.29448783 -0.36006987 0.38290393 0.10834163 0.046298362 -0.16333695 0.32824197
0.10780703 0.28174093 -0.22860399 -0.06641656 -0.1372492 -0.1910027 -0.27806458 -0.32324356
-0.5542663 0.22285247 -0.20460449 -0.025118032 0.07769291 0.42895 -0.98960674 -0.4662858
-0.28323126 0.09545672 0.5512551 0.71790546 -0.005485024 -0.19325359 0.5633792 -0.11144993
0.52915096 0.11724646 -0.30387148 -0.5521522 -0.55184174 0.1683647 -0.7163851 0.25567624
0.8259975 0.18272269 0.23241691 0.04969195 0.23353684 0.030497475 0.058430932 0.011502113
0.25795415 0.58165467 0.15921772 0.1598755 -0.14621206 0.10386741 -0.16688266 -0.3620058
0.3531907 -0.7813882 -0.22652543 0.7527202 -0.49988312 0.036483224 -0.439575 0.34993565
0.35666704 0.50756794 -0.0076915044 0.42082468 -0.5724806 -0.18196417 0.8658401 0.73072255
-0.37043035 -0.105652876 -0.19885622 -0.42998108 0.28678814 -0.33764964 -0.34116507 0.17693381
0.6462601 -0.08280585 -0.094896436 0.028063979 0.2520127 0.05675753 -0.45946077 -0.48185298

network_body._body_endoder.seq_layers.0.bias f4 [128]
00000000: e0fb 4cbe d341 86be 5a8f 7ebe 4374 a53e
00000010: 5eb1 a1be f911 de3e 5024 84be ba00 aabe
00000020: 4a1c bb3e ec8b 873c 13a8 1b3e ada8 42bd
00000030: 2a37 a03d 61b0 4abd 9b29 8bbd a87a 703e
00000040: dbfe 1b3d ee55 e2be 3d1d 9dbe c56d 95be
00000050: 9808 bcbd ca75 153a e7eb fd3a e7a8 043a
00000060: e25f 0abf 137a 47bd 0916 063f 5ca7 363e
00000070: 7014 bbbe e1a7 9bbe 76f0 26be aa7e e7be
00000080: 545c dbbd 43bb 473e 1d4a da3e 27fd 9cbc
00000090: bfcf 79bc e138 4b3d 53c5 2abe f025 c3be
000000a0: b36b bcbe c379 e93c f733 e7bd 74f4 253e
000000b0: 479d bbbe 1b74 183e 9f1f 93be d718 c93e
000000c0: 800e cb3c d7bd 0d3e d31a 94be 9619 4dbe
000000d0: 3827 033e 0c09 373e 84a2 bc3d f82f a73e
000000e0: 1e52 b2be 5b2f 3e3e 377b 4f3d a253 ab3d
000000f0: a85f babe 32fa c0be 499f 63be 6a10 a03e
00000100: b8ca ca3d c36d cdbe 0187 ac3e e4aa b0be
00000110: 5bf1 f0be 3438 913e 21a9 16be fb20 c23e
00000120: 9749 dbbe fb9d 3d39 ff87 c63e 5b11 84be
00000130: 5274 0fbc 52c8 9d3e 23b9 a3be 3acb a7be
00000140: f383 cbbe feec 29be f936 b53e ffff 9f3e
00000150: 0d01 3b3e 87f7 80be f045 8d3e 748b 80be
00000160: 233a 4dbe 0c2a a5be b251 0dbf fdf2 77be
00000170: df15 88be 485a 53be 2e6c 94bd a34c a0be
00000180: b207 1abd d929 ec3e df53 95be b093 0e3f
00000190: 8cf8 f93e 3476 aabd 1288 48be b4d5 06be
000001a0: c91d b4be bb24 753e 5160 273e ac7b afbe
000001b0: 2b56 8dbc 4847 2f3e 614a c6be 8cc2 9d3e
000001c0: 4ee6 933e d8f7 2abd ef46 743e 4858 05be
000001d0: 8112 2bbc abc0 3c3d 51a2 113e d3fe ecbe
000001e0: 07d6 4a3e 3ce6 043f 00dc 8fbe 82d4 e03d
000001f0: 2ea1 8dbe 4ad7 a2be f273 703e aec2 8bbe
-0.20017958 -0.26222095 -0.24859372 0.32315263 -0.31580633 0.43373087 -0.25808954 -0.3320368
0.3654502 0.016546212 0.15200834 -0.047524143 0.07823022 -0.049484614 -0.06795045 0.2348429
0.038084846 -0.44206184 -0.3068637 -0.2918531 -0.09181327 0.0005701451 0.0019372673 0.0005060569
-0.54052556 -0.048700403 0.5237737 0.1783728 -0.3653903 -0.3040152 -0.16302666 -0.45213825
-0.107109696 0.19505028 0.4263467 -0.019163681 -0.015247284 0.04961479 -0.16676836 -0.38114882
-0.36800918 0.028500443 -0.112892084 0.16206533 -0.3664343 0.1488804 -0.28735062 0.39276764
0.024787188 0.1384195 -0.28926715 -0.20029292 0.1280793 0.17874545 0.09210685 0.32653785
-0.34828275 0.18572752 0.050654616 0.08365561 -0.36401105 -0.37690884 -0.22228731 0.31262523
0.09901947 -0.40122804 0.3369675 -0.3450538 -0.4705914 0.28363192 -0.14712955 0.37915787
-0.42829582 0.00018083297 0.38775632 -0.2579449 -0.00875576 0.30816895 -0.31977186 -0.32772237
-0.39749107 -0.16594312 0.35393503 0.31249997 0.1826212 -0.25188848 0.2759242 -0.25106394
-0.20041709 -0.32258642 -0.5520278 -0.24213786 -0.26579186 -0.20639908 -0.07247196 -0.3130847
-0.037604995 0.46125677 -0.2916555 0.55694103 0.4882244 -0.08323327 -0.19583157 -0.13167459
-0.35178974 0.23939793 0.16345336 -0.34274042 -0.017253002 0.17117035 -0.38728622 0.3081249
0.28886646 -0.04174027 0.23855184 -0.13021958 -0.010441423 0.04608218 0.14222075 -0.46288165
0.19808207 0.5191381 -0.28097534 0.10978033 -0.27662033 -0.31804878 0.2348173 -0.27296966

network_body._body_endoder.seq_layers.2.weight f4 [128, 128]
00000000: 10a9 5e3d 7033 8bbd 5263 143d ea43 b7bd
00000010: d847 73bd b49c 9d3c e929 09be c2f6 d93d
00000020: f3dc 02be 9706 05bd aaab 40bc d03c 9d3d
00000030: 4e48 f23d a7ba e23c 62ec 25bc 926c 153e
00000040: 5944 a23c 9466 903c 5216 843e 6009 b33d
00000050: 25b4 24be 6547 513c 70fd 0abe b1c4 a23c
00000060: a985 8ebe df63 233d c2be 67bd 4e49 623d
00000070: e675 34bc b854 053d 97f4 a6bd 50b0 93bd
00000080: de03 89bd 854e afbd bcc9 b23b 14df aa3d
00000090: 3235 633c 3c3b 12be 087c 133d 116a 03be
000000a0: cdb3 a03d 5409 003e b12e 7fbd b3f1 35be
000000b0: 58c6 88bd 5cbe a4bc 378a 7fbd 7cc2 c9bd
000000c0: cc21 d5bd 6908 5abd ed93 bebd d2c1 513d
000000d0: 276c cd3c 4493 2dbd 0127 80bc 5d1a af3d
000000e0: cf58 83bd 608e 79bc da92 f83d ccaf d5bd
000000f0: 98a3 a0bd 0064 7ebd 8b5b 54bc 0460 c73d
00000100: 14c3 093e 1dc8 58be 6227 d03c 6648 d2be
00000110: 848d 5abe 6a65 cdbb 3d37 07be 3af3 13bd
00000120: 6d5e 2dbe 7a4e f33c e517 4ebd a0bd 2a3d
00000130: 5fb4 7bbd 9be5 073d dac3 b6bd e03a 6a3d
00000140: a3bd 3bbe 57e5 97be c595 80bd c4ad 723c
00000150: 4e7e b93b cc1e a9bd c690 a0bc 0ec0 d5bc
00000160: 6cf6 a1bd 61e7 443e e1a4 193e 4e84 683d
00000170: b640 cbbd 5119 1fbe 6561 bd3c 3e96 a3bd
00000180: 9e40 48bc 4442 6b3e 402a c1be bf88 f4bc
00000190: 5bc4 aebd 5511 6dbd b860 a03d e0bd 3cbe
000001a0: e9a4 9a3d f52c 133e f53d 173c b659 493d
000001b0: c6da 2e3d 7d8e e6be ee9b ae3d 574f 883e
000001c0: e8ac 3ebb a5be 49bd e4f0 8b3d ed80 b33d
000001d0: 4202 c3bb faf0 873d cc74 43be 8f46 7dbd
000001e0: 813b e33d 0afe 85bb 968e bdbb b803 d6bd
000001f0: 7914 95bb a3f3 063d 139c dcbd 6c7a eabc
00000200: 4f1c 3f3e 4a9a f2bd 14ae 14be b953 263d
00000210: 08fd a9bd 64e7 033e a1f2 22be 8146 a3bd
00000220: 91d6 963d 001e 153e a37f 0c3d 7190 343d
00000230: bac1 ed3a 04d6 f6bb db1c 53be 51fb c43d
00000240: 2356 febd b657 e8bd 2d60 43bb 25d5 abbd
00000250: 3b41 ddbd 2148 a83d 39e8 373c e8d2 c7bd
00000260: b68f 233b 4e4c 8cbd d344 9e3d d8f4 54be
00000270: af32 fe3a 72b7 1dbc 60bf 553d 4d0a 583c
00000280: c0c6 b23d ea60 0ebe 7977 013e 2cd5 f8bd
00000290: 75d6 00bd 8f31 373d b3d3 41bd 10f0 0abc
000002a0: 8949 b6bd e2d2 523e 67ad 663d a69d e1bd
000002b0: 1cfd e3bb 7f37 ea3d ed91 0a3d 8cfb 42b8
000002c0: b072 9f3d 929d 00be 6b7c ccbb 034b a43c
000002d0: b7f3 9d3d 4410 883d 6bc8 4d3d d847 85bd
000002e0: b472 623d 4718 50be b80c db3d 3aa1 12ba
000002f0: a4d9 143d 9520 21be 77c2 71bd 2ed3 d0bd
00000300: c62b 133d 499d f63c 7acc 4ebe 3d31 1f3c
00000310: 8f5e 50bd 8c6d 9a3c 31cb afbd afba d33d
00000320: 83f4 183e abe1 3d3e 9331 8db9 9d15 e4bd
00000330: fe24 ed3c ee4c 50bd aa75 b9bd 1525 88bc
00000340: 91b4 89bd 1440 0abd a31a 3b3d d531 523e
00000350: 9e1f 7f3c bebb 8cbd 2e1a a8bb 83da 3d3e
00000360: 5da8 06bd 7f79 f0bd 2473 ab3d 5555 fcbc
00000370: 7ab3 71bd 780d a13c 8b48 d73c 22ab d1bd
00000380: 2aee 4abe 3980 bdbd 90a9 0d3e 6226 e23d
00000390: 5fc1 a03d b565 f6bd 0642 8bbd 342a b8bd
000003a0: 846c 2abe 55aa aebd c448 08be 10eb 623d
000003b0: 6934 9b3d a8a4 11bd 5035 d93d 8c7e 7d3d
000003c0: 8c79 51bb 7f49 66bb 049c 72bd 7c1b a03c
000003d0: 67d2 313e b8a3 12be 0eb9 d8bd 6c02 92bc
000003e0: 1a59 fdbd 681b b3bd 50e9 55be ab26 26be
000003f0: 9d70 3d3d 132a c6bb 2bb4 0abd 8270 9cbd
0.05436045 -0.0679692 0.03622753 -0.089485005 -0.059394687 0.019239761 -0.13394894 0.106427684
-0.12779598 -0.032476988 -0.011759678 0.07677615 0.11830197 0.027676893 -0.010127159 0.14592198
0.019807981 0.017627038 0.2579828 0.087420225 -0.16084345 0.012773369 -0.13573241 0.01986918
-0.2783635 0.039890166 -0.056578405 0.05524569 -0.011014437 0.032551497 -0.081521206 -0.07211363
-0.06690191 -0.08559898 0.0054561775 0.0834333 0.013867663 -0.14280409 0.036006957 -0.1283343
0.07846794 0.12503558 -0.062300388 -0.17767982 -0.06678456 -0.020110302 -0.06238767 -0.09851548
-0.10406837 -0.053230677 -0.09305558 0.051210232 0.025075985 -0.04237677 -0.015643599 0.0854995
-0.06413423 -0.015231699 0.12137385 -0.10433921 -0.07843703 -0.062107086 -0.012961279 0.097351104
0.13453323 -0.21170087 0.025409404 -0.4107086 -0.21343046 -0.006268193 -0.13204665 -0.03612063
-0.16930552 0.029700506 -0.050315756 0.041684747 -0.061451312 0.033177953 -0.089240745 0.057185054
-0.1833406 -0.2966716 -0.06278566 0.014811937 0.0056608086 -0.08257827 -0.019600283 -0.026092555
-0.07908329 0.19228889 0.15004303 0.0567668 -0.09924452 -0.15537001 0.02311773 -0.07987641
-0.012222437 0.22974497 -0.37727547 -0.029850362 -0.085335456 -0.057877857 0.07830948 -0.18431807
0.07550985 0.14372618 0.00923108 0.04915782 0.042689107 -0.45030585 0.08525835 0.26623031
-0.002909476 -0.04925408 0.068330556 0.08764825 -0.005951197 0.066377595 -0.19087523 -0.061834868
0.11095334 -0.0040891217 -0.00578482 -0.10449928 -0.0045495597 0.032947194 -0.10771956 -0.028622828
0.18663143 -0.118458346 -0.1451953 0.040607188 -0.08300215 0.12881237 -0.15912868 -0.07972432
0.07365144 0.14562225 0.03430141 0.044083063 0.00181394 -0.007532837 -0.20616476 0.09618247
-0.12418773 -0.113448545 -0.0029811964 -0.083902635 -0.10803457 0.082168825 0.0112248 -0.09757024
0.0024957485 -0.068504915 0.07727971 -0.20796525 0.0019393767 -0.009626256 0.052184463 0.01318605
0.08729315 -0.13904157 0.12643231 -0.12150034 -0.031454522 0.044724997 -0.047321033 -0.008480087
-0.089007445 0.20588258 0.056317713 -0.11016397 -0.006957663 0.11436366 0.033830572 -4.6487476e-05
0.07785547 -0.12560108 -0.0062404177 0.0200553 0.077125005 0.066437274 0.05023996 -0.06507844
0.05528517 -0.20321761 0.10695785 -0.00055934826 0.03634037 -0.15735085 -0.059023347 -0.10196529
0.035930417 0.030104296 -0.20195189 0.009716329 -0.050871428 0.018851064 -0.085836776 0.103383414
0.14937024 0.18543117 -0.0002693055 -0.11136935 0.028948303 -0.050854616 -0.09055646 -0.016619245
-0.067238934 -0.033752516 0.0456797 0.20526822 0.015571503 -0.068717465 -0.005130074 0.18540387
-0.032875407 -0.117419235 0.08371571 -0.030802408 -0.059009053 0.019659743 0.026279708 -0.10237719
-0.19817415 -0.09252972 0.13834214 0.11042477 0.078493826 -0.12031118 -0.06799702 -0.089924246
-0.16642958 -0.08528582 -0.13309008 0.055399954 0.07578356 -0.03555742 0.10605872 0.061888263
-0.0031963317 -0.0035139022 -0.05923082 0.019544356 0.17365418 -0.14320266 -0.105821714 -0.01782342
-0.123705104 -0.08745462 -0.20889783 -0.16225688 0.046249975 -0.006047496 -0.033863228 -0.07638647

network_body._body_endoder.seq_layers.2.bias f4 [128]
00000000: 1970 b13e 5909 df3d 3f43 303e a343 ed3e
00000010: 8acc ca3e 0638 f53d d31f c7be 158e 083f
00000020: f32f 77bd a793 ff3d 39f7 ffbd 0c01 bf3d
00000030: c700 d13c 66dd 403c d19f 003f f34f a33d
00000040: af1a 0fbe 109b 9c3e ee40 99be 9ac1 d53e
00000050: 73b3 b23e 2558 cb3e 5411 e73d b264 7c3c
00000060: 6b5d c03d abe5 de3e b371 f4bd 42c1 e73d
00000070: f1c4 1a3d 8a84 373d 01fc df3d 73ab a63e
00000080: 925f debd 340d ecbc 543d 523e 3273 393d
00000090: 32e4 043d 7c8c d43d 0db8 80be 9297 84be
000000a0: 5165 5ebe ba29 9a3e e6dc 9dbe 86d4 943e
000000b0: e1aa 973e 9e55 a4bd d5a7 7d3d 998e a9be
000000c0: 0dba 42bd 62fa a2be 82df 8f3d ba46 a03e
000000d0: 2991 b9bd b86c 893e b682 a53e 38c3 683e
000000e0: a715 5c3e 0655 01be f3ad 473d 4f10 aabe
000000f0: 972e 0abc 3655 c4bd 0c39 273e 4e78 1a3e
00000100: b28b abbe af8b d63e c642 5cbe 959d d2bd
00000110: 9be0 1a3e dd29 9dbe 6b46 04bc cf41 323e
00000120: f70e 72bd 7a3f 313e 419b 4d3e 84d4 033e
00000130: 6603 863e 2ef0 7e3e 3f4a d03c 853a 28bd
00000140: 75f0 893e f9a0 8dbe b762 323d 4394 62be
00000150: 22e0 df3d f351 1fbd a875 95be c43d 8f3e
00000160: 8b7c 873e 43e5 58be 956d c33e 4459 773e
00000170: 10ca 10be c0e8 953d 656e d0bd 4295 8bbd
00000180: 66ad a93d 97a2 9d3e ee8c 7a3e 9347 123e
00000190: a28f 22be ec8a 20be d946 2cbe 2fcd 9f3e
000001a0: 7371 b7bd 491d 42be 8561 10be aa74 773e
000001b0: 532b 7c3e 1cf1 b13e 4fc6 87be 7ba6 af3c
000001c0: 7a1b 91be c291 d6bd 87ed 2dbe 30bc 9ebd
000001d0: 8ffd b53e a6aa cc3e 6f94 0d3e 3e39 343e
000001e0: 8954 45be 981b 923e e704 573e 072c 66bd
000001f0: c045 0fbe 0ab8 bb3e bc87 21bd 04df d2bc
0.34655836 0.10890455 0.17213152 0.46340665 0.39609176 0.11973576 -0.38891467 0.533418
-0.060348462 0.12479334 -0.12498326 0.093263716 0.025513066 0.0117715355 0.5024386 0.079742335
-0.13975023 0.30587053 -0.2993235 0.4174927 0.34902534 0.39715686 0.11282602 0.015404867
0.09392818 0.43534598 -0.11935749 0.11316158 0.037785474 0.044804133 0.10936738 0.3255268
-0.10858072 -0.02881489 0.20531207 0.045275874 0.032444187 0.10378358 -0.2514042 -0.2589689
-0.21718337 0.3010996 -0.30832595 0.29068393 0.29622558 -0.08024143 0.061927635 -0.33116606
-0.047540713 -0.31831652 0.070250526 0.3130396 -0.0906089 0.26840758 0.32326287 0.2273072
0.21492635 -0.1263009 0.048749875 -0.33215567 -0.008433959 -0.09586565 0.16330355 0.15084955
-0.33505017 0.41903445 -0.21509847 -0.10283963 0.15124743 -0.30696002 -0.00807343 0.17407916
-0.059096303 0.1730937 0.20078756 0.12874037 0.26174468 0.24896309 0.025426028 -0.041071434
0.26941267 -0.27661875 0.043551173 -0.2212687 0.10931422 -0.038896512 -0.29191327 0.2797681
0.26462206 -0.21181206 0.38169542 0.24155146 -0.1413958 0.07319784 -0.10177306 -0.06815578
0.08285026 0.3078811 0.24467823 0.14285116 -0.15875104 -0.15677994 -0.16823901 0.3121123
-0.089571856 -0.18956484 -0.14099701 0.24165598 0.24625902 0.34754264 -0.26518485 0.021441689
-0.28341275 -0.1047702 -0.1698514 -0.07750738 0.35545012 0.39973944 0.13826154 0.17599961
-0.19270529 0.28536677 0.20997964 -0.05619433 -0.13991451 0.36663848 -0.039436087 -0.025741108

action_model._continuous_distribution.log_sigma f4 [1, 3]
00000000: 09fb 6b3e b132 933e 1135 923e
0.23044981 0.28749612 0.2855611

action_model._continuous_distribution.mu.weight f4 [3, 128]
00000000: bf85 2fbc 2773 32be 0973 5b3a b3d9 ebbd
00000010: 4085 bfbc a6d7 c83c a1bf 7cbd 18f9 bb3c
00000020: c885 663d bb2e c2bc 975a 6e3e b937 223a
00000030: 007b 1e3c 9f26 4e3d 71c4 283d bf54 363c
00000040: 0a49 02bc 37b7 34bd ba0c 533d 3170 9bbd
00000050: c0b8 77be 3b83 ea3d 74ab afbb 1f38 b03c
00000060: aaed c938 21b6 a7bc 9c63 9ebc ba74 5d3a
00000070: a213 cebb 62ad 83bc bc72 50bb 2bc0 c93c
00000080: e78c bbbe aef0 eabc 67ff b13c e16f 6cbb
00000090: 1450 2f3d 6675 e83a 6ecc eb3b 7dd8 3abd
000000a0: 5326 07bc 58b5 293d e1da aabc 11b6 01bd
000000b0: 0936 80bc 1802 fcba 1adc ba3c 9b8d 53bb
000000c0: cedb 57bc 833c b23c 2aed ecbc bc6b 9fbd
000000d0: 4918 b73c b206 45bc f494 2c3d cb4b 853a
000000e0: 552c 76bd c9b2 93be 6905 f53d 2160 8fbc
000000f0: 2e93 a7bc 08ca 8d3c e3b0 75bc 1d7f 80bd
00000100: 9cdd fcbc 768e b13c 5df3 88bc 5c66 bcbc
00000110: 7d61 cd3c 6cc6 93bc 386e e3bc 3ee0 863c
00000120: 502d 75bd 990a d53a 9acd 863c 58c8 31ba
00000130: bf25 b83c 544a b7bd 33f6 eebc cdd5 a7bd
00000140: 2ba1 753d da51 e73a 8f0e d5bc a837 13bd
00000150: 4b93 50bc 712b 733b f245 c6bb ff90 1ebc
00000160: a44f 693d 27df a0bc 0bef 2c3c 797e b53c
00000170: 12c9 023c a1d3 cb3c 3913 013c 1c0c a7be
00000180: 24ec e3bc a29c 85bd 749d 5b3d 532d 213d
00000190: ccfc 20bc ad75 073c 7f6a 863c 3643 32bd
000001a0: c1fe 8ebb cc9a 3dbc a6a7 09ba 36a4 813c
000001b0: bdf8 a93c 4c7c ba3b 2007 283c 32e4 1dbd
000001c0: b743 08bd b4e7 763d 2fdc 5dba 9652 f3bd
000001d0: ad3a 473d 7510 9bbc 6c12 f8bc 781f 2abc
000001e0: 48b2 763d d96b bd3c daf7 a03c 4cfe e0be
000001f0: b8aa bebd 1aa9 a93c 06d1 9e3c 085a c23c
00000200: 5db3 04bd e638 e43a 75ab f3bc 23bb a9bd
00000210: e3f1 c0bc af68 aabc cc48 78bd 7df4 c83d
00000220: f394 983e 994f 183d bbaf ba3d 172d 803c
00000230: 60a6 8dbd a4fa 363d 02f3 d23d 54e3 123b
00000240: a170 91bd bc3c 543d fd60 dd3c 8b7d 933d
00000250: f705 40bd 8292 dd3d 90df 5f3d 2d5e 1dbd
00000260: 943b 1b3d ffc5 2d3b 4b4f 28be bbaa ccb9
00000270: 6009 06bc 1564 64bc bc1f b53c 984c c23b
00000280: 3adc 4dbe 1e01 db3e 8991 90bd ec2c 1cba
00000290: b637 f23d c982 cc3c 6761 2b3d 93a6 863c
000002a0: 84a8 d5bc 0eb4 c7bc 0dea 18bd e6d6 44be
000002b0: 0f75 73bc af79 0d3d 1282 33bb 2ae6 b73c
000002c0: d38a bb3b a107 7e3d 5861 a6bc 129f 4cbc
000002d0: ee2f 98bc e7b8 b33d fbf7 7c3a 82d9 06bd
000002e0: 75d9 47bd 85ec 02bc de07 d23d a6fe 70bd
000002f0: 9db5 333b dc3a c5bc e049 ecbc 3a16 c8bd
00000300: 2d38 bcbc 9e24 a13d cb61 b9ba bcd0 813c
00000310: a4af be3d 1ed2 90ba f61e 11bb 89ee 77bc
00000320: f461 b03e 6597 81bc bb8b 8f3c 2929 cb3c
00000330: df5d 6b3c 6675 213d 58bd cc3c ab57 3a3d
00000340: ec05 a2bc 6f8d d83c 5e1b b4ba 326f 60bd
00000350: 1c59 273b 1d8a 103c 0eb3 ae3b a9a2 efba
00000360: 5c7e 683d 5bbe 8abc 4ca0 a63d c0fd 793c
00000370: c97a da3b eef2 b8bc 6e90 c4bb a9d5 75be
00000380: 5c6d 27bc 9efe 32bd 1cc2 20bd 61d1 cd3d
00000390: 0b8b 05bc 2640 11bc c5e1 55bd e719 ef3c
000003a0: 7145 c9bc e65f 2bbc 9e22 76bc 7c77 09bd
000003b0: 6c71 44bd ce00 633c e038 cbbc 89ec 833c
000003c0: 2653 ad3c 9f50 a63d 4dd9 40bc e90c 55bd
000003d0: e5cd b3bb bbd7 d9bd af41 c839 6e57 093d
000003e0: 6d78 1c3c 4d94 2b3d d602 0ebc 2fe3 6abe
000003f0: fd30 eebd cd2d a9bd b539 2839 048a 0ebd
-0.01071304 -0.1742674 0.00083713286 -0.11516132 -0.023378968 0.024516892 -0.06170619 0.022945926
0.056279927 -0.023703923 0.23276745 0.0006188113 0.00967288 0.0503298 0.041202966 0.0111286035
-0.007951984 -0.04412004 0.05152581 -0.07589758 -0.2419157 0.114508115 -0.005361015 0.021511136
9.628695e-05 -0.020472588 -0.019334607 0.00084478746 -0.0062889615 -0.016073886 -0.0031806668 0.024627766
-0.36630937 -0.028679218 0.02172823 -0.0036077427 0.042800978 0.0017735183 0.007196001 -0.045616616
-0.008248883 0.04143271 -0.020856323 -0.031667773 -0.015650766 -0.0019226698 0.02281003 -0.0032280448
-0.013174964 0.02175737 -0.028921682 -0.077842206 0.022350447 -0.012025522 0.04213424 0.0010169683
-0.060100872 -0.2884734 0.119639225 -0.017501893 -0.020455923 0.01730825 -0.014995786 -0.06274245
-0.03086739 0.021674376 -0.016717607 -0.022998028 0.0250709 -0.01803895 -0.027762517 0.016464349
-0.059857666 0.0016253769 0.01645546 -0.00067818677 0.022478936 -0.08949724 -0.029170131 -0.08195076
0.059968155 0.0017648295 -0.026007919 -0.03594175 -0.01273043 0.003710475 -0.0060508186 -0.009678124
0.056960717 -0.019637657 0.010555039 0.022155033 0.007982509 0.024881186 0.007878118 -0.32626426
-0.027822562 -0.06524016 0.053616956 0.039349865 -0.0098258965 0.008267802 0.016408203 -0.04352113
-0.004363865 -0.011572551 -0.0005251117 0.015825372 0.02074849 0.005691087 0.010255605 -0.038547702
-0.033267703 0.060279563 -0.0008463291 -0.118809864 0.048639942 -0.018928746 -0.030282222 -0.010383479
0.060228616 0.023122715 0.019649435 -0.43944013 -0.09309906 0.020710517 0.01938678 0.02372457
-0.032397617 0.0017411977 -0.029744843 -0.082876466 -0.02355284 -0.02080187 -0.0606163 0.098122574
0.2980114 0.037185285 0.09115549 0.0156465 -0.06916499 0.044672623 0.10300256 0.002241333
-0.071015604 0.051815733 0.027023787 0.0720168 -0.04688069 0.1081896 0.054656565 -0.03841989
0.037898615 0.002651572 -0.16436498 -0.00039037116 -0.008180946 -0.013939877 0.022109859 0.005929541
-0.20103541 0.4277429 -0.07059009 -0.00059576216 0.11827032 0.024964707 0.041840937 0.01643685
-0.026081331 -0.024377849 -0.037332583 -0.19222602 -0.014859452 0.034539875 -0.002739076 0.022448618
0.0057233362 0.062018994 -0.020310089 -0.012489097 -0.018577542 0.08775502 0.0009649989 -0.032922275
-0.048791368 -0.007990961 0.10255407 -0.0588366 0.0027421482 -0.024075918 -0.02884382 -0.097698644
-0.022976005 0.07868312 -0.0014143524 0.015846603 0.093108445 -0.0011048948 -0.0022143698 -0.015132555
0.34449732 -0.01581926 0.017522683 0.0247999 0.014365642 0.0394186 0.02499263 0.045493763
-0.019778214 0.026434628 -0.0013741066 -0.054793544 0.002553529 0.008821991 0.0053314036 -0.001828273
0.05676113 -0.016936472 0.08136043 0.015258253 0.006667469 -0.022576775 -0.0059986627 -0.24007286
-0.010218944 -0.043699853 -0.039247617 0.100497015 -0.008150826 -0.008865392 -0.052217264 0.029187156
-0.024569245 -0.010459876 -0.015022902 -0.033561215 -0.04795973 0.013855172 -0.024807394 0.016104
0.021157812 0.08120846 -0.011770559 -0.052014265 -0.005487191 -0.106368504 0.0003819591 0.033530645
0.009550196 0.041889478 -0.008667668 -0.22938226 -0.116304375 -0.08260689 0.00016043226 -0.03479959

action_model._continuous_distribution.mu.bias f4 [3]
00000000: e220 523d ec78 3539 38d8 41be
0.05130089 0.00017306552 -0.18930137
