Drone-AI/Assets/TrainedModelBrain/DroneAI-Behavior 1.onnx (onnx, 73189 bytes, 7 tensors)

network_body._body_endoder.seq_layers.0.weight f4 [128, 6]
000000 56 b0 2e bf d6 44 12 3f f0 c7 06 3c 93 ec d1 bd
       -0.6823782 0.57136285 0.00822638 -0.10250201
000010 5b 25 74 3e 98 8e 40 bd 4a 1d 1e 3e 7b 2c 8c bd
       0.23842375 -0.047010988 0.1544086 -0.068444215
000020 5f 15 18 be 1a d5 94 be 88 ee ca 3e 72 b8 c7 3e
       -0.14851902 -0.29068834 0.3963511 0.39007908
000030 cc 77 e5 3d 93 a4 11 be 75 9f 95 3f 29 86 c6 3e
       0.1120449 -0.14222936 1.1689287 0.3877423
000040 49 0a f5 3e 32 d9 91 be 1a ab 6a be cb 7d 39 3e
       0.4785941 -0.2848602 -0.22916833 0.18114392
000050 f6 80 19 3f 8d 7d c3 3e 70 52 3b bf 5b 90 46 be
       0.59962404 0.38181725 -0.73172665 -0.19391005
000060 93 d4 02 be 1e cb 32 be 95 3a 00 bf fa eb 10 3e
       -0.12776403 -0.17460296 -0.5008939 0.14152518
000070 85 cd 9e be 46 8f 20 3d 73 4b 77 be 92 dd 54 bf
       -0.31016174 0.039199136 -0.24149875 -0.8315059
000080 c3 73 68 3f 19 c4 89 be f3 69 42 be e6 e0 8f be
       0.9080164 -0.26907423 -0.18985729 -0.2810127
000090 ea 0c 84 3e 31 fa d3 be 34 5c 8b 3f 74 37 48 3f
       0.25791103 -0.41401818 1.0887513 0.78209615
0000a0 43 4d ce be f7 a5 92 3e 5d d4 38 3f 7f d5 b4 3e
       -0.4029332 0.28642246 0.7219904 0.35319135
0000b0 99 dc 88 bd e2 5f 78 bd 50 e0 a7 bc 9b 6d 9d 3e
       -0.06682701 -0.060638316 -0.020492703 0.30747685
0000c0 46 a6 42 3e 00 e3 90 3e a5 75 27 3f 5b 9b 4f 3e
       0.19008741 0.28298187 0.65413886 0.20274107
0000d0 45 d5 55 bf e7 07 83 be 7a 45 c6 be b2 f6 02 bf
       -0.8352855 -0.25591967 -0.3872488 -0.5115768
0000e0 08 d8 be 3e 82 f1 78 be 76 37 f3 bc 2d 5a dc 3c
       0.37274194 -0.24310878 -0.029689532 0.026898468
0000f0 62 c7 39 bd 8b 60 0c 3f 3a 68 74 3d 13 fb be 3e
       -0.045356162 0.5483481 0.05966971 0.3730093
000100 4c 23 94 bf eb b7 cf 3e 2e cd 1c bf 09 cf 00 bf
       -1.1573272 0.40570006 -0.6125058 -0.5031591
000110 59 40 7f be a0 b1 e4 3d 47 4b c1 3e db 45 c0 3e
       -0.2492689 0.11166692 0.37752745 0.37553295
000120 ad c1 5f 3f 9e 01 25 3f 4e 3c 61 3e 73 d9 50 bd
       0.874049 0.6445559 0.2199566 -0.050988626
000130 20 da 1d 3f 37 36 5a bd 67 4d ba ba 02 22 50 be
       0.6166096 -0.05327436 -0.0014213742 -0.20325473
000140 f5 c3 32 bf be 58 d4 3e f9 c8 a5 3e 4f f5 a3 bf
       -0.69830257 0.41473955 0.32379892 -1.2809237
000150 9f 77 06 bf 50 e5 2a 3e b8 d3 15 be 92 a0 23 3e
       -0.5252628 0.16689038 -0.14631546 0.15979221
000160 5e 61 f6 3e f9 f0 59 3e b2 5f b9 be 1a 8a 1f 3f
       0.4812116 0.2128333 -0.36205822 0.623201
000170 1f 47 2c bf 1b 97 44 3f b5 eb 85 be be 86 03 3f
       -0.6729602 0.7679307 -0.26156393 0.51377475
000180 68 fc 7f bb 83 8e 1f 3f 13 c8 a4 be 96 9e fd bd
       -0.0039060358 0.6232683 -0.32183895 -0.123837635
000190 95 1d 2c 3f 69 cf eb 3e cc 58 9d 3e f3 fa 9d 3e
       0.6723264 0.4605668 0.3073181 0.30855522
0001a0 68 b4 a8 3e 85 cd 9e bd ee 72 1e be 45 23 03 3f
       0.3295014 -0.077540435 -0.1547353 0.5122569
0001b0 35 a0 2e 3d 3b 6a ed be ec 37 52 3d 36 d9 28 3e
       0.042633254 -0.4637011 0.051322863 0.1648911
0001c0 82 e1 44 3f d6 4a a7 be c1 be c5 3d 41 4b 04 3f
       0.769066 -0.32674283 0.09655524 0.5167733
0001d0 6d e1 e1 be 18 54 21 bf c8 32 10 3e cd e2 13 bf
       -0.441173 -0.6301894 0.14081872 -0.57767946
0001e0 67 dd 52 bd bb 73 7d bf 78 58 f4 3e 73 4c 93 3e
       -0.051480677 -0.99004716 0.47723746 0.28769264
0001f0 b7 bb ea be 88 f8 20 3d 16 ac 3e be 3f 61 3f be
       -0.4584634 0.039299518 -0.18620333 -0.1868944
000200 2f 35 7f 3e 21 2c ad 3e aa b9 2d 3f d5 32 02 3e
       0.24922632 0.3382273 0.67861426 0.12714703
000210 df 5c a5 3e cb 3c 2c be 0a 36 61 3f ef b2 88 3e
       0.32297418 -0.16820066 0.8797308 0.26699015
000220 aa c9 1d bc 50 2f 01 be 95 d4 dc 3e f7 63 73 3e
       -0.0096306 -0.12615705 0.43130937 0.23768602
000230 9c c4 0d bc 28 f3 15 3f 53 17 1e 3e 3f a2 77 3d
       -0.008652832 0.5857415 0.15438585 0.060457464
000240 fd 0c 25 3f b9 d1 32 be d0 39 44 be b9 fa 80 be
       0.64472944 -0.17462815 -0.19162679 -0.25191286
000250 1c 9f d9 3d 1d b3 86 be 30 4d 7c 3e 84 70 3d bd
       0.10626051 -0.26308528 0.2463882 -0.04624988
000260 b2 b3 89 3f 59 eb 70 3e d5 11 90 be db 6a ab be
       1.0757964 0.23527278 -0.28138605 -0.33479962
000270 1c 93 d5 3e ae 10 04 be a3 26 b2 3d fd ab 4f be
       0.41713798 -0.12896988 0.086987756 -0.20280452
000280 50 b0 29 bf bc d0 e0 3d 5a 69 05 3f 28 7a a6 bf
       -0.66284657 0.10977313 0.5211388 -1.3006029
000290 0a 1e fb 3d ea 99 a5 3e e1 65 65 be cb 95 a9 3e
       0.12261589 0.3234399 -0.22402145 0.33122095
0002a0 d0 77 8f 3e 8e 3a 56 3e a0 47 17 3f c7 6e 2b bf
       0.28021097 0.20920774 0.59093666 -0.6696591
0002b0 6e 28 b6 3d 07 c5 05 3f bb 77 e1 be c4 ea 77 bf
       0.0889443 0.52253765 -0.4403666 -0.968426
0002c0 fe 7f 63 3e bf 79 64 3e b3 79 b0 bd 30 2a a8 3e
       0.22216794 0.22312067 -0.08616962 0.32844687
0002d0 5c 35 bb 3e d3 c0 0f bf 1b 7a 50 3e e4 94 23 bf
       0.36564147 -0.561536 0.2035908 -0.63899064
0002e0 b3 31 81 3d a0 1a 06 bf 87 77 f0 be 18 ea 83 bd
       0.063083075 -0.52384377 -0.46966192 -0.06441134
0002f0 0c 5f 97 be f1 a1 f4 3e 03 84 b8 be 7d 95 c4 be
       -0.29564703 0.477798 -0.36038217 -0.383953
000300 76 0a d7 be c1 7e 95 be 3d d2 8d 3e d3 ab 6a be
       -0.4200017 -0.29198268 0.27699462 -0.22917108
000310 e2 6d 45 bf aa 1d 7a bd 73 47 18 bd 62 ae f2 be
       -0.7712079 -0.061063446 -0.037177514 -0.4739867
000320 d6 a4 23 bc 10 c3 b5 3e b3 bd e7 3d 1b 3c 0c 3e
       -0.00998803 0.35500383 0.11315479 0.13694803
000330 3e 66 46 3f 78 c4 0e be ce 60 93 bc 31 ea 19 bf
       0.7749976 -0.13942134 -0.017990496 -0.6012297
000340 c7 d8 12 3c cf af 20 3f 8e 31 99 be b6 b1 ec be
       0.008962817 0.6276826 -0.2992062 -0.46229333
000350 c7 99 26 3e 49 d1 b5 3d f2 87 b0 3e eb eb 41 3f
       0.16269599 0.088778086 0.34478718 0.7575061
000360 31 46 18 3f 17 f3 93 be 5d 87 8a 3c 44 6b ba be
       0.59482104 -0.288964 0.01691025 -0.36409962
000370 ba d1 8b 3c a8 9a d4 3e 46 9b 85 3e 4d b2 9f 3e
       0.017067779 0.41524243 0.26095027 0.3119072
000380 b2 ce 5e bd a3 3a 61 3e 83 0c 73 3e d8 67 c8 be
       -0.05439634 0.21995024 0.23735242 -0.39141726
000390 25 45 85 3d 26 27 df bd cf e9 93 be 6d 27 7a 3e
       0.06507329 -0.10896139 -0.2888932 0.24429102
0003a0 7c ef 0b 3e 5d bd 07 bf 86 29 82 be cf 36 0c 3e
       0.13665575 -0.5302332 -0.25422305 0.13692783
0003b0 df 2e 3c be 88 09 eb 3e e1 8a 00 3e 3e b0 6f be
       -0.18377255 0.4590571 0.12552978 -0.23407075
0003c0 19 aa dc be c8 09 49 3e b1 4c 89 3f 99 d1 a7 be
       -0.43098524 0.19632638 1.0726529 -0.32777098
0003d0 24 93 0b bf 2a 19 24 bf 45 2e 11 3f 15 4b df 3e
       -0.54521394 -0.641009 0.56711227 0.4361197
0003e0 d9 e9 d1 3c 86 62 9b 3e dd aa c0 be 2a 43 e1 bd
       0.025624203 0.30348605 -0.37630358 -0.10999139
0003f0 14 9e 26 3f c1 e7 5f 3f 14 36 e4 3e 25 e2 6b bc
       0.6508496 0.87463003 0.44572508 -0.014397179

network_body._body_endoder.seq_layers.0.bias f4 [128]
000000 86 a9 fb bd 2d b4 13 3d c0 7e 93 bd c8 f8 03 bd
       -0.122881934 0.0360605 -0.0720191 -0.03221968
000010 a3 ae c0 bc b6 ff be bc 51 df 81 bd f9 33 57 bd
       -0.023520773 -0.023315292 -0.06341422 -0.0525398
000020 4b 8a d6 bd c6 ca 42 3d 61 7d 0c 3e 6c cb d3 3d
       -0.10475596 0.04755666 0.13719703 0.10341534
000030 18 b1 11 be 66 c1 14 be b7 19 48 3e cc 01 19 bd
       -0.14227712 -0.145269 0.1954106 -0.03735523
000040 53 f4 a2 bd 9a a2 4e be fc 3b 8e 3d 0b 59 8f 3d
       -0.079567574 -0.20179215 0.06945035 0.069994055
000050 db 37 e2 bc 7c bf dc bc 38 97 2a bd ab 4a 60 be
       -0.027614525 -0.026946776 -0.04164812 -0.21903484
000060 06 82 21 3e d0 ba b1 bd bb db cb bd ea 52 a4 bc
       0.15772256 -0.0867821 -0.0995402 -0.020059068
000070 36 8e a3 3c 2f 65 09 bc 67 8c 00 3c 82 6d 7a bd
       0.019965272 -0.00838594 0.0078459745 -0.06113959
000080 3f 3b 85 bd 29 9b 7f 3d 0c 3f d7 bd 83 c3 80 3d
       -0.06505441 0.06240383 -0.10510072 0.06287291
000090 28 d0 b7 bc 45 0c fd 3d 3d 9e 2b bd 4f 28 2d be
       -0.022438124 0.12355856 -0.041898955 -0.16909908
0000a0 e1 ac 7e 3d 24 99 96 3d 77 8f 29 3e 7a b5 5a bd
       0.06217659 0.07353428 0.16558634 -0.053395726
0000b0 10 1b 59 bc 7f 02 90 bd 02 5c 78 3d ae 09 50 bd
       -0.013251081 -0.07031726 0.06063462 -0.05079048
0000c0 60 b4 8f bd 68 4a b9 bc 3b da ee bc e6 cd b8 3d
       -0.07016826 -0.022618487 -0.029156795 0.09023647
0000d0 ec 1c 1e bd d2 d3 af bd c3 fa a5 bd f3 2f 08 be
       -0.0386018 -0.085853234 -0.081044696 -0.13299541
0000e0 84 31 a3 ba 5b 85 76 3d b0 28 60 bd f8 c5 43 3d
       -0.001245067 0.06018577 -0.054726303 0.04779622
0000f0 df 41 da 3d 88 38 22 3e d4 cf 9b bd 44 d3 a3 3d
       0.10657095 0.15841877 -0.076079994 0.0799928
000100 fc e8 57 3e 50 1e 73 bd 37 dd 38 3d ef 9e 61 3e
       0.2108497 -0.05935508 0.045132842 0.22033285
000110 18 b2 7a 3d 36 01 23 bd 26 65 42 bc 19 b4 6a 3d
       0.061205 -0.039796077 -0.011864936 0.05730066
000120 9c b0 49 3a fe 1b 81 bd de 73 bc 3d 30 bb 3f bc
       0.00076938584 -0.06304167 0.092017874 -0.011702344
000130 c0 95 98 bc 51 c4 18 bc 58 59 a7 bd 0c 33 22 be
       -0.018626094 -0.009324149 -0.08171338 -0.15839785
000140 c3 85 2d be cb 1b a0 ba ac c6 89 3d a9 3e 12 3e
       -0.16945557 -0.0012215314 0.06727347 0.14281715
000150 40 c7 71 bd a5 46 fa bd fc 6d 5d bd df 0f fc bd
       -0.05902791 -0.122205056 -0.054059967 -0.12307715
000160 4a a1 d6 bc d2 34 0c be cc 73 36 bc 4c 35 f6 3d
       -0.026199955 -0.13692024 -0.011136007 0.12021884
000170 0a 3a c4 bc 8d 5c af 3d eb 2f ac 3d eb 99 e7 3d
       -0.023953456 0.085625745 0.08407577 0.113086544
000180 d2 35 e3 3d eb 57 1f 3e ea e1 95 3c fe 9d 2d be
       0.1109425 0.15560882 0.0182962 -0.169548
000190 be 5f 63 3e a7 64 b5 3d 0e ca 25 bd 95 6e ff bd
       0.22204491 0.088570885 -0.040475897 -0.12472264
0001a0 1a d1 b3 bc 7a de f3 bd 23 09 17 bd c1 f6 bd bd
       -0.021950293 -0.119076684 -0.036873948 -0.0927558
0001b0 00 c9 8a bd 62 9b 9f 3c a8 af 1f be 24 3b ab bd
       -0.06776619 0.019483272 -0.15594351 -0.083608896
0001c0 de 92 1f be 17 ff 57 bd ae 78 bc 3d af 06 0a be
       -0.15583369 -0.052733507 0.09202705 -0.13479112
0001d0 f4 5c 32 3c 08 6e 12 bd dc 12 ec bd 4d cc 88 bd
       0.01088642 -0.035749465 -0.11527035 -0.06679592
0001e0 7d 61 37 3d fc 08 0c 3d 8c 83 bd 3d e8 a5 45 bd
       0.044770706 0.034188256 0.09253606 -0.048253924
0001f0 6b 7a a2 3c 8d 56 2d 3e 2b 5c c0 3c 8d 08 80 bd
       0.019833764 0.16927548 0.02348145 -0.06251631

network_body._body_endoder.seq_layers.2.weight f4 [128, 128]
000000 79 ce 3c 3d 73 3b 10 be ed 84 9c bd ce aa ba bd
       0.046095345 -0.14085178 -0.07642541 -0.0911461
000010 ad b4 9d bd 40 03 3a 3d e1 95 f1 bc dc e3 99 3d
       -0.07700477 0.045413256 -0.029490413 0.07514164
000020 6a 86 66 3c cf a9 3c 3e 27 46 1d 3c a2 dc e8 3d
       0.014070133 0.18424152 0.009599245 0.11370207
000030 d7 5e 81 bb c0 c8 52 bd 11 df 27 3d 2c 9e 59 bd
       -0.0039480734 -0.05146098 0.040984217 -0.05312936
000040 1d 5b d6 bb 41 96 64 3d ee 6a a0 3c 1c e2 ee bd
       -0.0065416233 0.055807356 0.019582238 -0.11664221
000050 c6 9d 48 bd 48 c8 d0 bd 89 59 f2 3c b9 ed c2 3d
       -0.04897859 -0.101944506 0.02958371 0.09517998
000060 38 9c 95 3d 7f a5 04 be 21 65 65 3c 83 02 5d bd
       0.07305187 -0.12953757 0.014001162 -0.053957473
000070 e2 1a 82 bc 6d 23 fb 3d b1 33 d3 bc 19 ed 9b bd
       -0.01588196 0.12262616 -0.025781484 -0.07613582
000080 94 34 cb bd a8 8c 03 be a2 99 a4 bd b8 d2 fb 3d
       -0.09922138 -0.12846625 -0.08037116 0.12296051
000090 d5 38 0e 3e fd 30 25 be 09 ef 3a be 37 11 c9 3d
       0.13888867 -0.16131969 -0.18255247 0.098177366
0000a0 80 b3 39 3d 37 13 09 3d dc 64 e0 3d 9a 5f 10 3e
       0.0453372 0.03346559 0.109567374 0.14098969
0000b0 56 39 e1 3c 66 ae 80 3d 83 ea d0 bd 16 0b ed bb
       0.02749316 0.06283264 -0.102009796 -0.0072339876
0000c0 4a 7c 04 be 10 db f4 bb 77 ec ab 3c 97 9d 29 3e
       -0.12938038 -0.0074724033 0.020986779 0.16564022
0000d0 40 36 33 be 1e f4 a5 bd 09 e7 68 3d 8f b9 c4 bd
       -0.17501163 -0.08103202 0.056860957 -0.09605705
0000e0 a2 c1 1d be 68 31 e7 3d f8 01 43 3e c6 37 a2 3d
       -0.15405896 0.1128872 0.1904372 0.07920794
0000f0 10 34 88 3d 08 28 70 3c ce dc 14 bd 39 19 1b be
       0.06650555 0.014657982 -0.03634339 -0.1514634
000100 4e 47 e5 bd 99 45 f1 3d 09 ef d9 bd 8b 30 a1 bd
       -0.11195241 0.11780853 -0.106412955 -0.07870587
000110 67 e3 d3 bd e5 cb e5 bb cd 88 b2 3d e5 7b 67 3d
       -0.10346108 -0.0070128315 0.08717499 0.05651464
000120 da 9b aa 3d 69 83 3f be a5 94 9a bd d1 70 1e 3e
       0.083305076 -0.18702473 -0.07547883 0.15472724
000130 e6 11 8d 3e e5 91 b5 bc 53 e4 a1 3d 9b 9c 9a bd
       0.27552718 -0.022164294 0.079048775 -0.075494014
000140 14 f1 48 bd 90 97 9f 3d 67 67 59 bd 65 83 30 3c
       -0.049058035 0.0779258 -0.053077128 0.010773514
000150 3f 5f 38 bd 97 80 9d 3d 0a ab 04 3e 52 92 a1 bd
       -0.04501271 0.07690542 0.12955871 -0.078892365
000160 1a 30 80 bc 65 f5 aa 3d 84 e5 03 bd 57 70 b9 bc
       -0.015647937 0.083475865 -0.032201305 -0.022636576
000170 af bf 32 3d 0f 8b 98 3d a6 09 d7 3d 7e 32 f7 bb
       0.043639835 0.07448398 0.10499887 -0.007543861
000180 43 f7 8c 3d b4 44 94 bc bc e3 00 bc d7 fc ce bd
       0.06883099 -0.018099166 -0.007866796 -0.10106819
000190 8a 54 0e bd 86 98 11 3c 18 c9 78 3d 22 eb 08 3e
       -0.03474859 0.008886462 0.060738653 0.13370946
0001a0 53 6f 56 3d 5d b4 63 be 4a 3b c2 3d 54 d9 5f bd
       0.05235226 -0.22236772 0.09483965 -0.05465062
0001b0 19 f8 1f 3d c7 d2 6e 3c 5d 76 45 3b d0 79 6c bd
       0.039054964 0.01457662 0.0030130364 -0.057733357
0001c0 0f 38 49 be e1 aa f1 bd e8 3e 24 be c3 60 22 3e
       -0.19650291 -0.11800171 -0.16039622 0.15857224
0001d0 18 b7 58 bd 92 c8 f6 bc cc f9 68 3d 49 5a 92 bd
       -0.052908987 -0.030124936 0.05687885 -0.07146127
0001e0 65 ad a0 bc e3 02 86 3c 97 d0 91 bc 1d 58 bc 3c
       -0.019613931 0.016358798 -0.017799659 0.022991234
0001f0 a2 a8 56 3e b8 a3 34 3e 1d 31 ba bc 01 59 4e bd
       0.20962766 0.17640579 -0.022728497 -0.05037785
000200 20 a1 7e 3d 06 65 e4 bd 1e e7 8c 3d e9 bf 9e 3d
       0.06216538 -0.11152081 0.068800196 0.07751448
000210 3c ec c2 bd 7f 1e 41 3e b1 e1 36 3e 00 8c 5c bd
       -0.095177144 0.1885929 0.17859532 -0.053844452
000220 53 14 7e ba c1 6d 60 3e e5 fd 44 be f7 c9 fb 3d
       -0.00096923596 0.21916868 -0.19237478 0.12294381
000230 83 07 1a 3d c4 cf 09 be e7 42 32 bd fa f9 0f 3e
       0.03760482 -0.13458163 -0.043520834 0.14060202
000240 84 73 c1 bc ed 41 8e bc 6c dc 8e bd 00 73 2f 3d
       -0.023614652 -0.01736542 -0.06975636 0.042834282
000250 e7 e8 81 bc 13 01 be 3d 8b f1 57 be b9 a9 62 3d
       -0.015858127 0.09277549 -0.21088235 0.05533764
000260 14 d9 a6 3d bc e8 d5 bd 21 51 0d 3e 8e 13 b7 bb
       0.08146873 -0.10444781 0.1380048 -0.005587048
000270 e0 ce f8 3c a8 50 43 bd c7 a2 09 3d d6 51 1e bd
       0.030372083 -0.04768434 0.033602502 -0.038652264
000280 6c 38 7c bd 1e 0d 5c bc 92 32 8b 3d bf bf ec 3d
       -0.061577246 -0.013430862 0.06796755 0.1156001
000290 63 7a 37 3d 35 84 86 bc 0c 24 97 bd 26 db fc 3c
       0.04479445 -0.016420463 -0.07379922 0.030866217
0002a0 ef bc a5 3d 75 3c 49 be ee 25 bc 3c bc 41 11 be
       0.08092677 -0.19651969 0.022967305 -0.14185232
0002b0 03 51 0d 3e 18 0c 53 3d 46 e7 e3 bd 83 09 44 3d
       0.13800435 0.051525205 -0.11128096 0.047860634
0002c0 4a 8f 02 bd c6 aa 73 3d 92 b9 b6 bd cf 13 f2 bb
       -0.031874932 0.059489034 -0.089221135 -0.0073876153
0002d0 bb cd 2c 3d c2 05 e4 bc 69 40 9a bd 2e 00 9a 3d
       0.042188387 -0.027834777 -0.075318165 0.075195655
0002e0 0b c4 c7 3b 66 2a 0c 3e 32 45 8b 3c 8f 9b eb 3d
       0.006096368 0.13688049 0.017000768 0.1150428
0002f0 51 9f 0e 3b 51 5e 6f 3d f6 e3 32 bc d0 7d c4 bd
       0.002176244 0.058439557 -0.010918608 -0.09594309
000300 41 0e 94 bd ea 9a a7 bd 09 dd c5 bd 69 cb f0 bd
       -0.07229281 -0.081838444 -0.096613 -0.117575474
000310 31 8c ab 3d 46 39 a4 bd 69 2c 2b bd c9 de 94 3b
       0.08376349 -0.080187365 -0.0417904 0.0045431596
000320 42 42 4a 3e 8c 35 0c bd 93 47 21 3e f9 0e 23 3e
       0.19751838 -0.034230754 0.1574996 0.1592368
000330 b4 1c d2 3c bb f7 66 3d ea 4f 06 bd 64 ef 9e bd
       0.025648452 0.056388598 -0.032791056 -0.07760504
000340 90 61 96 bd 9a 4b f0 bd 15 28 ec bd 2d 78 53 bb
       -0.07342827 -0.1173317 -0.115310825 -0.0032267675
000350 c1 e8 07 3e 1e ff 0c 3d 22 e4 61 bd d5 7c 58 3e
       0.13272382 0.034422986 -0.055149205 0.2114137
000360 59 bf 29 3d 45 40 1d 3d a6 dc 29 3b a4 32 23 3b
       0.04144225 0.03839137 0.002591887 0.002490201
000370 5d b8 76 bc 33 54 82 bd 75 7a 62 bc 62 28 d4 3c
       -0.015058604 -0.06363716 -0.013823141 0.025898162
000380 f4 b0 f1 bc df 19 d3 3c ab 48 6f bd 9d 3c c2 3d
       -0.029503323 0.025769172 -0.05841891 0.09484217
000390 c4 06 4b 3e 9d f1 b7 3d 98 39 aa 3c 8a 0c 1c be
       0.198268 0.08981631 0.020779416 -0.15239158
0003a0 87 47 10 bc 07 e7 c6 3c 9c 6d 5c 3d 0f 2b fb bc
       -0.008806116 0.024280084 0.05381547 -0.03066018
0003b0 c5 49 dd 3d 56 ce 42 3d f3 70 02 bc 6d 54 24 3e
       0.10805086 0.04756006 -0.0079614995 0.16047831
0003c0 c7 57 4a 3d 16 52 7c 3d 93 7b 5f 3a ac 91 bf 3d
       0.049400117 0.06160172 0.0008525189 0.093539566
0003d0 f2 46 95 bd 96 72 9e 3e 90 d4 4e bd bd 9d bb bd
       -0.07288922 0.30946797 -0.050495684 -0.091609456
0003e0 97 04 06 3d 14 af 5d 3d 38 4c 36 bc e8 50 4a 3c
       0.03271922 0.054122046 -0.01112657 0.012348391
0003f0 42 fd 87 bd 3a 69 95 3d 43 5d 20 3e 0a 83 2c 3c
       -0.06640102 0.07295461 0.15660577 0.010529289

network_body._body_endoder.seq_layers.2.bias f4 [128]
000000 2b 60 f8 bc e3 93 fd bd 7e dd 04 3d b8 79 e0 3d
       -0.030319294 -0.12381723 0.032437794 0.10960716
000010 fd 1e c2 bd aa e2 10 3e d7 38 01 3d 13 46 52 bc
       -0.09478567 0.14148965 0.031548347 -0.01283409
000020 d1 6c 86 3e 6f 25 71 3d 4d d3 ad bd 57 7b d6 3c
       0.26254895 0.05887359 -0.08487568 0.02618186
000030 0c 11 03 3d ca 8c 68 3e 0a d9 0f 3e c0 bc fb 3b
       0.03199868 0.22709957 0.14047638 0.007682413
000040 a5 14 11 3d 52 c8 aa bd bf b5 17 3e 80 65 20 bd
       0.03542008 -0.08338989 0.14815424 -0.039159298
000050 cc 50 a7 3c f8 85 c6 bd 6b 2d bb ba 8c d1 b3 3d
       0.02042427 -0.09693521 -0.0014280503 0.08780202
000060 b7 0d 04 3b d3 db 61 3d 8a 8c be 3d 9d da c5 bd
       0.0020149776 0.05514128 0.093041494 -0.09660838
000070 49 7f 2d 3e d1 e7 ae bc f2 81 15 be fe d2 9d bc
       0.16943087 -0.021350773 -0.14600351 -0.019265648
000080 14 2c f4 3d 66 8d ab 3c 44 61 8d bd eb 77 d6 3c
       0.1192247 0.020941447 -0.069033176 0.026180228
000090 a9 6e f8 bd ef 49 de 3c 22 a9 bf 3c 36 3c e5 bd
       -0.12130482 0.027134864 0.023396078 -0.11193125
0000a0 24 32 87 bd 0f 21 66 bb de aa 00 3c 81 bb 5d bc
       -0.066013604 -0.003511492 0.007853238 -0.013533474
0000b0 9c b2 5a bc ab 08 09 3c d6 83 ce 3c 09 b1 d1 bc
       -0.013348248 0.008363883 0.025209349 -0.025597112
0000c0 e2 b8 97 3d 0f 06 3e bd 98 b3 cb bb 71 38 85 3d
       0.074083105 -0.046392497 -0.0062164776 0.06504906
0000d0 19 41 42 3d 6c ae 97 bc 3a ce 00 3e ce f1 31 bd
       0.047425363 -0.018515788 0.12578669 -0.043443494
0000e0 f1 18 a7 3c 37 1b b0 3c ea 55 84 3d 5e 89 7a 3d
       0.020397635 0.021497352 0.06461699 0.06116616
0000f0 46 cd ba 3c 3d 7d a9 3c 43 4a 7b 3b 7f 62 5e 3e
       0.02280296 0.020689601 0.0038343824 0.21717261
000100 8c c1 3e 3d 97 c8 ad bd 48 1b ba 3c 49 e0 c1 3c
       0.0465713 -0.08485525 0.022718087 0.023666518
000110 6d a9 03 3e bd 8d e9 bd b1 6d cb 3c c6 5f 8f ba
       0.128576 -0.114039876 0.024832578 -0.0010938577
000120 25 f8 23 be 48 3d 14 3e e0 1a 81 bd 11 e4 47 bb
       -0.16012628 0.14476502 -0.06303954 -0.0030500928
000130 a3 7c dc 3c 62 69 f3 3c 55 48 69 3d 0b 53 93 3d
       0.0269149 0.029713336 0.056953747 0.071935736
000140 63 b1 35 3d 5f 29 f3 bc 9c b8 4f bd 7f 8c 6c bd
       0.044358622 -0.029682813 -0.050713167 -0.057751175
000150 80 4f d8 3d e3 99 3f be 22 f0 18 3e 16 f0 2c 3d
       0.105620384 -0.18711047 0.14935353 0.04222115
000160 2f 26 87 bd 23 e0 e8 bd 16 18 e0 3d 6b 1b 4c bd
       -0.0659908 -0.11370876 0.10942094 -0.049830835
000170 73 a0 43 3a db e4 e4 bd e3 a3 e1 bd 32 8a 20 3d
       0.00074625685 -0.11176463 -0.11017587 0.039194293
000180 e2 a5 fc 3d c4 3a ec 3d 74 89 03 3e 5a c7 82 3d
       0.12336327 0.11534646 0.12845403 0.063856795
000190 0f e9 c2 3b 36 e5 10 bc 2f 1e 46 bd 0c 37 a9 3b
       0.005948193 -0.008843711 -0.04836863 0.005164033
0001a0 b3 8b dc bb 04 5e 9b bc 48 6c c9 3c 40 18 95 3d
       -0.0067305206 -0.018965729 0.024587765 0.07280016
0001b0 32 b8 24 3e 73 6e 33 3c ea f4 10 3c 0c c4 d1 3d
       0.1608589 0.010951626 0.008847455 0.10242471
0001c0 5e 56 04 be 80 fb 01 bd de cb ea 3d c8 bb 9b bb
       -0.12923571 -0.03173399 0.11464666 -0.00475261
0001d0 bc dc c0 3d e2 47 43 3e 49 fe 59 bd f8 65 5a 3d
       0.09417102 0.1907039 -0.05322102 0.0533199
0001e0 ea e0 8b 3d 27 c6 88 bd e6 95 b8 bb 85 7e 1f be
       0.06830008 -0.066784196 -0.0056331037 -0.15575607
0001f0 d6 6b a6 3d 0d 03 3d bd f4 2e c0 3d 88 8a 47 bd
       0.08126037 -0.046145488 0.093839556 -0.048716098

action_model._continuous_distribution.log_sigma f4 [1, 3]
000000 df 50 06 3e 19 86 42 3e e5 98 0c 3e
       0.13116787 0.18996467 0.137302

action_model._continuous_distribution.mu.weight f4 [3, 128]
000000 56 ad 39 bb 7b 84 e1 bb 90 67 39 bc a3 fc 28 3c
       -0.0028332076 -0.006882248 -0.011316195 0.01031414
000010 ad ce b0 bc d5 3a 74 3c d8 ad 70 3c cb fc 84 bc
       -0.021582926 0.014906605 0.014689885 -0.016233822
000020 9b 48 38 3d 13 b9 bb 3c 4e 74 0b 3c 1c f4 b0 3c
       0.044991117 0.022915399 0.008511616 0.021600775
000030 4f 9c 9e ba d3 9b 02 bd bb 95 4c bc 79 43 73 bb
       -0.0012101027 -0.031886887 -0.01248687 -0.0037119074
000040 98 e7 10 bc 56 d9 ea bc d5 60 0e 3b cb 87 13 bc
       -0.008844279 -0.028668087 0.0021725197 -0.009004544
000050 71 6e 18 3b dc 32 c2 bb 1c 00 3e 3c 4d 7b dd 3c
       0.0023259188 -0.005926473 0.011596706 0.027036333
000060 3e 82 55 3c 23 59 19 3d 96 c3 21 bb fc 3e a6 3b
       0.01303154 0.037438523 -0.0024683229 0.0050734263
000070 c9 e4 7c 39 b7 dc 81 3a dc d2 d8 3b a0 6b 95 3b
       0.00024117822 0.0009907697 0.0066169333 0.004559949
000080 63 a2 8d 3b 88 84 b0 bc c7 5a 84 bc e9 e0 57 3b
       0.0043223365 -0.02154757 -0.016156567 0.0032940453
000090 db da 92 3b 14 29 8c 3b 54 1b ff bc ad 05 1e 3c
       0.004481656 0.004277358 -0.03114096 0.009644908
0000a0 39 e6 89 3b 89 07 a0 3c f4 f1 13 bd a7 86 db bc
       0.004208353 0.019534843 -0.036119416 -0.026797606
0000b0 23 65 70 3c 1c 40 10 bc 16 1b af ba b0 34 b1 bc
       0.01467255 -0.008804347 -0.0013359513 -0.021631569
0000c0 57 02 55 3d fa aa 1a 3b 8e 97 d0 bc 56 10 05 3c
       0.052004185 0.0023600445 -0.025462892 0.008121571
0000d0 9d 95 bf bb f8 2d 25 bb b6 59 45 bc 7d 1b ac bc
       -0.0058466927 -0.0025204401 -0.012045315 -0.021009201
0000e0 ad 28 83 3c e5 d2 f0 3a e0 e6 c9 3c d2 68 45 bd
       0.016010607 0.0018373398 0.024646223 -0.048195668
0000f0 31 97 55 3c f3 71 67 3c e4 5f 4b bd 7f ec 9c bc
       0.013036535 0.014126289 -0.049651995 -0.019155739
000100 ad bf 0a bd 16 d5 e0 3c 20 3b 9a bc 52 fe 0a 3c
       -0.033874203 0.027445357 -0.018827021 0.008483486
000110 b3 61 8c 3a 88 c2 1a bc 6e b8 b2 3a 32 88 94 3c
       0.0010710269 -0.009445794 0.0013635287 0.01813135
000120 34 a2 17 bb bb 3b c2 3c 48 f5 a9 39 86 fc 40 bc
       -0.0023137452 0.023710122 0.0003241694 -0.011778956
000130 9d e2 13 3c 53 ff d4 3c bf 8e c2 3b 76 89 a9 3c
       0.009026197 0.026000654 0.005937427 0.02069543
000140 6d 51 0a 3d 1e 5d 36 bd 9a e1 a9 3c 32 fe ac bc
       0.03376906 -0.044522397 0.020737458 -0.021117304
000150 04 43 8e bc 21 ae 3a 3a 8b 66 dd 3c df 0e e6 3c
       -0.01736594 0.0007121284 0.027026435 0.028083263
000160 ab 07 80 bc d4 21 4e bb 4f 34 39 bc 3c 7d 1b 3c
       -0.015628656 -0.0031453269 -0.011303975 0.009490307
000170 91 65 1e 3b c5 88 2e bc fd 0c c8 b8 67 c0 f8 bb
       0.0024169425 -0.010652726 -9.5391624e-05 -0.0075912955
000180 cd b9 83 3c 62 79 91 3b cf 39 7c bc 05 e2 87 bb
       0.016079808 0.004439519 -0.015394642 -0.0041468167
000190 83 e9 e2 bb 51 83 a1 3c c4 f7 b7 bb c9 17 3a bd
       -0.0069248094 0.019715937 -0.0056142528 -0.04543284
0001a0 05 b0 cf bc 3e 9c c7 3d c2 44 a8 3c 78 26 0f bc
       -0.025352487 0.09746598 0.020540599 -0.008737199
0001b0 bc ae 20 3c c3 39 48 3b 87 2b 78 3b b5 8d 78 bc
       0.009807285 0.0030552007 0.0037867741 -0.015170504
0001c0 e8 8c 8a bc 34 61 1e bb 76 1c fe b7 7f ac 40 3c
       -0.016912892 -0.0024166824 -3.0292413e-05 0.011759876
0001d0 c5 1a cd 3c f5 fb 65 bc e6 f3 8c 3c eb 0d 9a bc
       0.025037179 -0.014037122 0.017206144 -0.018805465
0001e0 aa 35 d2 3b 34 ac d3 3c 9a cf 27 bb 76 48 e3 ba
       0.0064150887 0.025838949 -0.0025605918 -0.0017340321
0001f0 72 1d d9 bc f3 f1 b0 bb ff c0 b9 3c 1f f5 fd bb
       -0.026503298 -0.0053999363 0.022675036 -0.007750168
000200 91 bc 2f bc 86 35 8c bc c2 05 b4 3c dd 32 74 3c
       -0.01072611 -0.017115366 0.021975402 0.014904705
000210 97 89 47 ba 48 1e d8 3c 80 6b 28 bb e4 7d 9f 3c
       -0.000761175 0.026381627 -0.002569884 0.019469209
000220 f2 69 f9 bc e0 57 42 bb 64 6b ff 3b 5c 79 b2 bb
       -0.030446026 -0.0029654428 0.0077947844 -0.005446596
000230 7d 96 b7 bc 85 d7 4e bd 77 be 1a 3c be 8b 13 bd
       -0.022410626 -0.050498504 0.009444824 -0.03602194
000240 ed eb d1 3c 72 de f8 bc 1e b0 ec ba 89 3c d3 39
       0.025625193 -0.030379508 -0.0018057858 0.00040290158
000250 91 8c 80 3c 87 8b fb ba f7 fb 7e bc 26 bc 96 3c
       0.015692027 -0.0019191363 -0.015563003 0.018400263
000260 0e e8 54 bb b3 a6 82 bb bd b6 b4 bc 68 50 83 bc
       -0.0032486948 -0.0039871573 -0.022059793 -0.016029552
000270 9f 56 9c 3c 68 6d 58 3a 91 69 91 3b 78 02 90 3b
       0.019084273 0.0008256049 0.0044376333 0.0043948255
000280 cf 5a 31 3b 0b cf 3a bd c8 5c af bc 84 43 8f bc
       0.0027062183 -0.045607608 -0.021406546 -0.017488249
000290 f2 eb 10 3c 32 fb 28 bc 90 cc 01 bc a5 cb a8 3c
       0.008845316 -0.010313796 -0.007922307 0.020604918
0002a0 60 63 b8 3b 4a 9e 3d bc 46 32 fe bd ef 9b 38 bc
       0.005627081 -0.011573384 -0.12411933 -0.011267646
0002b0 04 8c 8d bd 49 ed 7b ba cd 13 2e 3c 3a cb 29 bd
       -0.069114715 -0.00096102484 0.010624838 -0.041453578
0002c0 a8 2a d3 3c 2b 3e fa bb 63 76 ab bc 65 29 24 3d
       0.025777176 -0.0076368055 -0.020930475 0.04007854
0002d0 03 40 80 3c c8 78 8c bc d1 82 bf 3a 25 9b 07 3c
       0.015655523 -0.017147437 0.001461113 0.008276735
0002e0 5e 0d 1d 3c 6a 0f 97 bc 93 f1 81 3c 27 80 3a 3c
       0.0095857065 -0.018439967 0.015862262 0.011383093
0002f0 1f d3 85 bb 63 b5 cf 3b 7e 38 34 bd 4b 9b f9 bc
       -0.0040840055 0.0063387617 -0.043999188 -0.030469557
000300 be a3 39 3d 84 78 70 3c 32 52 a3 ba 7e 22 4f 3b
       0.045322172 0.014677171 -0.0012460409 0.0031606252
000310 d3 4b 37 ba 8a 6e 9d 3a 04 b6 e8 bc c1 c4 e4 3c
       -0.00069921947 0.0012011093 -0.028407104 0.02792585
000320 96 b3 c2 bb f2 fe 28 3c 9b 87 f0 bb de 3b 99 3c
       -0.0059418185 0.01031469 -0.007340384 0.018705305
000330 5b e8 be 39 14 21 0e 3c 5b 66 56 bd 48 c2 30 bd
       0.00036412742 0.008674879 -0.052343708 -0.04315403
000340 9c 1f 00 bd 4b e5 8f bd 6b e5 9f bc a4 e8 a7 3a
       -0.031280145 -0.07026156 -0.019518575 0.0012810421
000350 0b 76 1b 3b 7a 0a 7d bc b7 1c 1c bc 25 ca eb 3b
       0.0023721482 -0.015444392 -0.0095283305 0.0071957284
000360 54 83 27 bd a0 2b 69 bc 28 bd e6 bc b3 4c a2 bb
       -0.04089673 -0.014231592 -0.028166369 -0.004952991
000370 e0 ef ca 3b 0e 71 02 bd ba a3 0a 3d f2 16 c1 bc
       0.006193146 -0.0318461 0.033847548 -0.023570511
000380 29 9b 03 3c c9 ab 2a 3a f1 f9 ae 3c 16 03 db bc
       0.0080325985 0.00065105833 0.021359416 -0.02673487
000390 e5 55 3b 3c f9 9a 0f bd 86 12 e6 3c 73 29 c3 3c
       0.011434053 -0.035059903 0.028085005 0.023823475
0003a0 47 59 16 3d 04 98 88 bd 09 2b c6 3c 33 2a 8d bc
       0.036706235 -0.0666962 0.024190443 -0.017232036
0003b0 98 a3 c1 3b 55 56 07 bc 04 cc f8 3c 51 4c 73 3c
       0.0059093945 -0.008260329 0.03037072 0.014849738
0003c0 20 77 8e bb d5 3f 24 bd 29 2a 07 bc 07 89 50 ba
       -0.004347697 -0.040099937 -0.008249798 -0.0007954989
0003d0 8e 73 86 bc 57 80 41 3c c6 f6 84 bc 77 e0 9f 3b
       -0.016412523 0.011810384 -0.016230952 0.004879053
0003e0 77 c9 d9 3c 47 97 f6 bb 38 30 ab bc 4f 34 29 bd
       0.026585324 -0.007525358 -0.020897016 -0.04130965
0003f0 59 5a e8 3c 2f 08 3b bb 27 3e 84 bb 5e 5b d3 3c
       0.028363394 -0.0028538813 -0.0040357294 0.025800403

action_model._continuous_distribution.mu.bias f4 [3]
000000 fc 97 af 3c 1d 02 31 3d 00 5f 0c be
       0.021434776 0.043214906 -0.13708115
